{"format": "graph-model", "generatedBy": "2.14.0", "convertedBy": "TensorFlow.js Converter v4.15.0", "signature": {"inputs": {"inputs": {"name": "inputs:0", "dtype": "DT_UINT8", "tensorShape": {"dim": [{"size": "1"}, {"size": "-1"}, {"size": "-1"}, {"size": "3"}]}}}, "outputs": {"logits": {"name": "Identity_1:0", "dtype": "DT_FLOAT", "tensorShape": {"dim": [{"size": "1"}, {"size": "640"}, {"size": "640"}, {"size": "2"}]}}, "image_info": {"name": "Identity:0", "dtype": "DT_FLOAT", "tensorShape": {"dim": [{"size": "1"}, {"size": "4"}, {"size": "2"}]}}}}, "modelTopology": {"node": [{"name": "StatefulPartitionedCall/map/TensorArrayV2_2/element_shape", "op": "Const", "device": "/device:CPU:0", "attr": {"value": {"tensor": {"dtype": "DT_INT32", "tensorShape": {"dim": [{"size": "2"}]}}}, "dtype": {"type": "DT_INT32"}}}, {"name": "StatefulPartitionedCall/map/TensorArrayV2_2/num_elements", "op": "Const", "device": "/device:CPU:0", "attr": {"value": {"tensor": {"dtype": "DT_INT32", "tensorShape": {}}}, "dtype": {"type": "DT_INT32"}}}, {"name": "StatefulPartitionedCall/map/TensorArrayV2Stack_1/TensorListStack/element_shape", "op": "Const", "device": "/device:CPU:0", "attr": {"value": {"tensor": {"dtype": "DT_INT32", "tensorShape": {"dim": [{"size": "2"}]}}}, "dtype": {"type": "DT_INT32"}}}, {"name": "StatefulPartitionedCall/aspp_1/spatial_pyramid_pooling/sequential/conv2d/Conv2D/merged_input", "op": "Const", "attr": {"value": {"tensor": {"dtype": "DT_FLOAT", "tensorShape": {"dim": [{"size": "1"}, {"size": "1"}, {"size": "320"}, {"size": "256"}]}}}, "dtype": {"type": "DT_FLOAT"}}}, {"name": "StatefulPartitionedCall/aspp_1/spatial_pyramid_pooling/sequential/batch_normalization/batchnorm/sub", "op": "Const", "attr": {"value": {"tensor": {"dtype": "DT_FLOAT", "tensorShape": {"dim": [{"size": "256"}]}}}, "dtype": {"type": "DT_FLOAT"}}}, {"name": "StatefulPartitionedCall/mobile_net_1/inverted_bottleneck_block_32/batch_normalization_2/batchnorm/sub", "op": "Const", "attr": {"value": {"tensor": {"dtype": "DT_FLOAT", "tensorShape": {"dim": [{"size": "160"}]}}}, "dtype": {"type": "DT_FLOAT"}}}, {"name": "StatefulPartitionedCall/mobile_net_1/inverted_bottleneck_block_32/conv2d/Conv2D/merged_input", "op": "Const", "attr": {"value": {"tensor": {"dtype": "DT_FLOAT", "tensorShape": {"dim": [{"size": "1"}, {"size": "1"}, {"size": "160"}, {"size": "960"}]}}}, "dtype": {"type": "DT_FLOAT"}}}, {"name": "StatefulPartitionedCall/mobile_net_1/inverted_bottleneck_block_32/batch_normalization/batchnorm/sub", "op": "Const", "attr": {"value": {"tensor": {"dtype": "DT_FLOAT", "tensorShape": {"dim": [{"size": "960"}]}}}, "dtype": {"type": "DT_FLOAT"}}}, {"name": "StatefulPartitionedCall/mobile_net_1/inverted_bottleneck_block_32/depthwise_conv2d/depthwise/SpaceToBatchND/block_shape", "op": "Const", "attr": {"value": {"tensor": {"dtype": "DT_INT32", "tensorShape": {"dim": [{"size": "2"}]}}}, "dtype": {"type": "DT_INT32"}}}, {"name": "StatefulPartitionedCall/mobile_net_1/inverted_bottleneck_block_32/depthwise_conv2d/depthwise/SpaceToBatchND/paddings", "op": "Const", "attr": {"value": {"tensor": {"dtype": "DT_INT32", "tensorShape": {"dim": [{"size": "2"}, {"size": "2"}]}}}, "dtype": {"type": "DT_INT32"}}}, {"name": "StatefulPartitionedCall/mobile_net_1/inverted_bottleneck_block_32/depthwise_conv2d/depthwise/ReadVariableOp", "op": "Const", "attr": {"value": {"tensor": {"dtype": "DT_FLOAT", "tensorShape": {"dim": [{"size": "3"}, {"size": "3"}, {"size": "960"}, {"size": "1"}]}}}, "dtype": {"type": "DT_FLOAT"}}}, {"name": "StatefulPartitionedCall/mobile_net_1/inverted_bottleneck_block_32/depthwise_conv2d/depthwise/BatchToSpaceND/block_shape", "op": "Const", "attr": {"value": {"tensor": {"dtype": "DT_INT32", "tensorShape": {"dim": [{"size": "2"}]}}}, "dtype": {"type": "DT_INT32"}}}, {"name": "StatefulPartitionedCall/mobile_net_1/inverted_bottleneck_block_32/depthwise_conv2d/depthwise/BatchToSpaceND/crops", "op": "Const", "attr": {"value": {"tensor": {"dtype": "DT_INT32", "tensorShape": {"dim": [{"size": "2"}, {"size": "2"}]}}}, "dtype": {"type": "DT_INT32"}}}, {"name": "StatefulPartitionedCall/mobile_net_1/inverted_bottleneck_block_32/batch_normalization_1/batchnorm/mul", "op": "Const", "attr": {"value": {"tensor": {"dtype": "DT_FLOAT", "tensorShape": {"dim": [{"size": "960"}]}}}, "dtype": {"type": "DT_FLOAT"}}}, {"name": "StatefulPartitionedCall/mobile_net_1/inverted_bottleneck_block_32/batch_normalization_1/batchnorm/sub", "op": "Const", "attr": {"value": {"tensor": {"dtype": "DT_FLOAT", "tensorShape": {"dim": [{"size": "960"}]}}}, "dtype": {"type": "DT_FLOAT"}}}, {"name": "StatefulPartitionedCall/mobile_net_1/inverted_bottleneck_block_32/conv2d_1/Conv2D/merged_input", "op": "Const", "attr": {"value": {"tensor": {"dtype": "DT_FLOAT", "tensorShape": {"dim": [{"size": "1"}, {"size": "1"}, {"size": "960"}, {"size": "160"}]}}}, "dtype": {"type": "DT_FLOAT"}}}, {"name": "StatefulPartitionedCall/mobile_net_1/inverted_bottleneck_block_31/batch_normalization_2/batchnorm/sub", "op": "Const", "attr": {"value": {"tensor": {"dtype": "DT_FLOAT", "tensorShape": {"dim": [{"size": "160"}]}}}, "dtype": {"type": "DT_FLOAT"}}}, {"name": "StatefulPartitionedCall/mobile_net_1/inverted_bottleneck_block_31/conv2d/Conv2D/merged_input", "op": "Const", "attr": {"value": {"tensor": {"dtype": "DT_FLOAT", "tensorShape": {"dim": [{"size": "1"}, {"size": "1"}, {"size": "160"}, {"size": "960"}]}}}, "dtype": {"type": "DT_FLOAT"}}}, {"name": "StatefulPartitionedCall/mobile_net_1/inverted_bottleneck_block_31/batch_normalization/batchnorm/sub", "op": "Const", "attr": {"value": {"tensor": {"dtype": "DT_FLOAT", "tensorShape": {"dim": [{"size": "960"}]}}}, "dtype": {"type": "DT_FLOAT"}}}, {"name": "StatefulPartitionedCall/mobile_net_1/inverted_bottleneck_block_31/depthwise_conv2d/depthwise/SpaceToBatchND/block_shape", "op": "Const", "attr": {"value": {"tensor": {"dtype": "DT_INT32", "tensorShape": {"dim": [{"size": "2"}]}}}, "dtype": {"type": "DT_INT32"}}}, {"name": "StatefulPartitionedCall/mobile_net_1/inverted_bottleneck_block_31/depthwise_conv2d/depthwise/SpaceToBatchND/paddings", "op": "Const", "attr": {"value": {"tensor": {"dtype": "DT_INT32", "tensorShape": {"dim": [{"size": "2"}, {"size": "2"}]}}}, "dtype": {"type": "DT_INT32"}}}, {"name": "StatefulPartitionedCall/mobile_net_1/inverted_bottleneck_block_31/depthwise_conv2d/depthwise/ReadVariableOp", "op": "Const", "attr": {"value": {"tensor": {"dtype": "DT_FLOAT", "tensorShape": {"dim": [{"size": "3"}, {"size": "3"}, {"size": "960"}, {"size": "1"}]}}}, "dtype": {"type": "DT_FLOAT"}}}, {"name": "StatefulPartitionedCall/mobile_net_1/inverted_bottleneck_block_31/depthwise_conv2d/depthwise/BatchToSpaceND/block_shape", "op": "Const", "attr": {"value": {"tensor": {"dtype": "DT_INT32", "tensorShape": {"dim": [{"size": "2"}]}}}, "dtype": {"type": "DT_INT32"}}}, {"name": "StatefulPartitionedCall/mobile_net_1/inverted_bottleneck_block_31/depthwise_conv2d/depthwise/BatchToSpaceND/crops", "op": "Const", "attr": {"value": {"tensor": {"dtype": "DT_INT32", "tensorShape": {"dim": [{"size": "2"}, {"size": "2"}]}}}, "dtype": {"type": "DT_INT32"}}}, {"name": "StatefulPartitionedCall/mobile_net_1/inverted_bottleneck_block_31/batch_normalization_1/batchnorm/mul", "op": "Const", "attr": {"value": {"tensor": {"dtype": "DT_FLOAT", "tensorShape": {"dim": [{"size": "960"}]}}}, "dtype": {"type": "DT_FLOAT"}}}, {"name": "StatefulPartitionedCall/mobile_net_1/inverted_bottleneck_block_31/batch_normalization_1/batchnorm/sub", "op": "Const", "attr": {"value": {"tensor": {"dtype": "DT_FLOAT", "tensorShape": {"dim": [{"size": "960"}]}}}, "dtype": {"type": "DT_FLOAT"}}}, {"name": "StatefulPartitionedCall/mobile_net_1/inverted_bottleneck_block_31/conv2d_1/Conv2D/merged_input", "op": "Const", "attr": {"value": {"tensor": {"dtype": "DT_FLOAT", "tensorShape": {"dim": [{"size": "1"}, {"size": "1"}, {"size": "960"}, {"size": "160"}]}}}, "dtype": {"type": "DT_FLOAT"}}}, {"name": "StatefulPartitionedCall/mobile_net_1/inverted_bottleneck_block_29/batch_normalization_2/batchnorm/sub", "op": "Const", "attr": {"value": {"tensor": {"dtype": "DT_FLOAT", "tensorShape": {"dim": [{"size": "96"}]}}}, "dtype": {"type": "DT_FLOAT"}}}, {"name": "StatefulPartitionedCall/mobile_net_1/inverted_bottleneck_block_29/conv2d/Conv2D/merged_input", "op": "Const", "attr": {"value": {"tensor": {"dtype": "DT_FLOAT", "tensorShape": {"dim": [{"size": "1"}, {"size": "1"}, {"size": "96"}, {"size": "576"}]}}}, "dtype": {"type": "DT_FLOAT"}}}, {"name": "StatefulPartitionedCall/mobile_net_1/inverted_bottleneck_block_29/batch_normalization/batchnorm/sub", "op": "Const", "attr": {"value": {"tensor": {"dtype": "DT_FLOAT", "tensorShape": {"dim": [{"size": "576"}]}}}, "dtype": {"type": "DT_FLOAT"}}}, {"name": "StatefulPartitionedCall/mobile_net_1/inverted_bottleneck_block_29/depthwise_conv2d/depthwise/ReadVariableOp", "op": "Const", "attr": {"value": {"tensor": {"dtype": "DT_FLOAT", "tensorShape": {"dim": [{"size": "3"}, {"size": "3"}, {"size": "576"}, {"size": "1"}]}}}, "dtype": {"type": "DT_FLOAT"}}}, {"name": "StatefulPartitionedCall/mobile_net_1/inverted_bottleneck_block_29/batch_normalization_1/batchnorm/mul", "op": "Const", "attr": {"value": {"tensor": {"dtype": "DT_FLOAT", "tensorShape": {"dim": [{"size": "576"}]}}}, "dtype": {"type": "DT_FLOAT"}}}, {"name": "StatefulPartitionedCall/mobile_net_1/inverted_bottleneck_block_29/batch_normalization_1/batchnorm/sub", "op": "Const", "attr": {"value": {"tensor": {"dtype": "DT_FLOAT", "tensorShape": {"dim": [{"size": "576"}]}}}, "dtype": {"type": "DT_FLOAT"}}}, {"name": "StatefulPartitionedCall/mobile_net_1/inverted_bottleneck_block_29/conv2d_1/Conv2D/merged_input", "op": "Const", "attr": {"value": {"tensor": {"dtype": "DT_FLOAT", "tensorShape": {"dim": [{"size": "1"}, {"size": "1"}, {"size": "576"}, {"size": "96"}]}}}, "dtype": {"type": "DT_FLOAT"}}}, {"name": "StatefulPartitionedCall/mobile_net_1/inverted_bottleneck_block_28/batch_normalization_2/batchnorm/sub", "op": "Const", "attr": {"value": {"tensor": {"dtype": "DT_FLOAT", "tensorShape": {"dim": [{"size": "96"}]}}}, "dtype": {"type": "DT_FLOAT"}}}, {"name": "StatefulPartitionedCall/mobile_net_1/inverted_bottleneck_block_28/conv2d/Conv2D/merged_input", "op": "Const", "attr": {"value": {"tensor": {"dtype": "DT_FLOAT", "tensorShape": {"dim": [{"size": "1"}, {"size": "1"}, {"size": "96"}, {"size": "576"}]}}}, "dtype": {"type": "DT_FLOAT"}}}, {"name": "StatefulPartitionedCall/mobile_net_1/inverted_bottleneck_block_28/batch_normalization/batchnorm/sub", "op": "Const", "attr": {"value": {"tensor": {"dtype": "DT_FLOAT", "tensorShape": {"dim": [{"size": "576"}]}}}, "dtype": {"type": "DT_FLOAT"}}}, {"name": "StatefulPartitionedCall/mobile_net_1/inverted_bottleneck_block_28/depthwise_conv2d/depthwise/ReadVariableOp", "op": "Const", "attr": {"value": {"tensor": {"dtype": "DT_FLOAT", "tensorShape": {"dim": [{"size": "3"}, {"size": "3"}, {"size": "576"}, {"size": "1"}]}}}, "dtype": {"type": "DT_FLOAT"}}}, {"name": "StatefulPartitionedCall/mobile_net_1/inverted_bottleneck_block_28/batch_normalization_1/batchnorm/mul", "op": "Const", "attr": {"value": {"tensor": {"dtype": "DT_FLOAT", "tensorShape": {"dim": [{"size": "576"}]}}}, "dtype": {"type": "DT_FLOAT"}}}, {"name": "StatefulPartitionedCall/mobile_net_1/inverted_bottleneck_block_28/batch_normalization_1/batchnorm/sub", "op": "Const", "attr": {"value": {"tensor": {"dtype": "DT_FLOAT", "tensorShape": {"dim": [{"size": "576"}]}}}, "dtype": {"type": "DT_FLOAT"}}}, {"name": "StatefulPartitionedCall/mobile_net_1/inverted_bottleneck_block_28/conv2d_1/Conv2D/merged_input", "op": "Const", "attr": {"value": {"tensor": {"dtype": "DT_FLOAT", "tensorShape": {"dim": [{"size": "1"}, {"size": "1"}, {"size": "576"}, {"size": "96"}]}}}, "dtype": {"type": "DT_FLOAT"}}}, {"name": "StatefulPartitionedCall/mobile_net_1/inverted_bottleneck_block_26/batch_normalization_2/batchnorm/sub", "op": "Const", "attr": {"value": {"tensor": {"dtype": "DT_FLOAT", "tensorShape": {"dim": [{"size": "64"}]}}}, "dtype": {"type": "DT_FLOAT"}}}, {"name": "StatefulPartitionedCall/mobile_net_1/inverted_bottleneck_block_26/conv2d/Conv2D/merged_input", "op": "Const", "attr": {"value": {"tensor": {"dtype": "DT_FLOAT", "tensorShape": {"dim": [{"size": "1"}, {"size": "1"}, {"size": "64"}, {"size": "384"}]}}}, "dtype": {"type": "DT_FLOAT"}}}, {"name": "StatefulPartitionedCall/mobile_net_1/inverted_bottleneck_block_26/batch_normalization/batchnorm/sub", "op": "Const", "attr": {"value": {"tensor": {"dtype": "DT_FLOAT", "tensorShape": {"dim": [{"size": "384"}]}}}, "dtype": {"type": "DT_FLOAT"}}}, {"name": "StatefulPartitionedCall/mobile_net_1/inverted_bottleneck_block_26/depthwise_conv2d/depthwise/ReadVariableOp", "op": "Const", "attr": {"value": {"tensor": {"dtype": "DT_FLOAT", "tensorShape": {"dim": [{"size": "3"}, {"size": "3"}, {"size": "384"}, {"size": "1"}]}}}, "dtype": {"type": "DT_FLOAT"}}}, {"name": "StatefulPartitionedCall/mobile_net_1/inverted_bottleneck_block_26/batch_normalization_1/batchnorm/mul", "op": "Const", "attr": {"value": {"tensor": {"dtype": "DT_FLOAT", "tensorShape": {"dim": [{"size": "384"}]}}}, "dtype": {"type": "DT_FLOAT"}}}, {"name": "StatefulPartitionedCall/mobile_net_1/inverted_bottleneck_block_26/batch_normalization_1/batchnorm/sub", "op": "Const", "attr": {"value": {"tensor": {"dtype": "DT_FLOAT", "tensorShape": {"dim": [{"size": "384"}]}}}, "dtype": {"type": "DT_FLOAT"}}}, {"name": "StatefulPartitionedCall/mobile_net_1/inverted_bottleneck_block_26/conv2d_1/Conv2D/merged_input", "op": "Const", "attr": {"value": {"tensor": {"dtype": "DT_FLOAT", "tensorShape": {"dim": [{"size": "1"}, {"size": "1"}, {"size": "384"}, {"size": "64"}]}}}, "dtype": {"type": "DT_FLOAT"}}}, {"name": "StatefulPartitionedCall/mobile_net_1/inverted_bottleneck_block_25/batch_normalization_2/batchnorm/sub", "op": "Const", "attr": {"value": {"tensor": {"dtype": "DT_FLOAT", "tensorShape": {"dim": [{"size": "64"}]}}}, "dtype": {"type": "DT_FLOAT"}}}, {"name": "StatefulPartitionedCall/mobile_net_1/inverted_bottleneck_block_25/conv2d/Conv2D/merged_input", "op": "Const", "attr": {"value": {"tensor": {"dtype": "DT_FLOAT", "tensorShape": {"dim": [{"size": "1"}, {"size": "1"}, {"size": "64"}, {"size": "384"}]}}}, "dtype": {"type": "DT_FLOAT"}}}, {"name": "StatefulPartitionedCall/mobile_net_1/inverted_bottleneck_block_25/batch_normalization/batchnorm/sub", "op": "Const", "attr": {"value": {"tensor": {"dtype": "DT_FLOAT", "tensorShape": {"dim": [{"size": "384"}]}}}, "dtype": {"type": "DT_FLOAT"}}}, {"name": "StatefulPartitionedCall/mobile_net_1/inverted_bottleneck_block_25/depthwise_conv2d/depthwise/ReadVariableOp", "op": "Const", "attr": {"value": {"tensor": {"dtype": "DT_FLOAT", "tensorShape": {"dim": [{"size": "3"}, {"size": "3"}, {"size": "384"}, {"size": "1"}]}}}, "dtype": {"type": "DT_FLOAT"}}}, {"name": "StatefulPartitionedCall/mobile_net_1/inverted_bottleneck_block_25/batch_normalization_1/batchnorm/mul", "op": "Const", "attr": {"value": {"tensor": {"dtype": "DT_FLOAT", "tensorShape": {"dim": [{"size": "384"}]}}}, "dtype": {"type": "DT_FLOAT"}}}, {"name": "StatefulPartitionedCall/mobile_net_1/inverted_bottleneck_block_25/batch_normalization_1/batchnorm/sub", "op": "Const", "attr": {"value": {"tensor": {"dtype": "DT_FLOAT", "tensorShape": {"dim": [{"size": "384"}]}}}, "dtype": {"type": "DT_FLOAT"}}}, {"name": "StatefulPartitionedCall/mobile_net_1/inverted_bottleneck_block_25/conv2d_1/Conv2D/merged_input", "op": "Const", "attr": {"value": {"tensor": {"dtype": "DT_FLOAT", "tensorShape": {"dim": [{"size": "1"}, {"size": "1"}, {"size": "384"}, {"size": "64"}]}}}, "dtype": {"type": "DT_FLOAT"}}}, {"name": "StatefulPartitionedCall/mobile_net_1/inverted_bottleneck_block_24/batch_normalization_2/batchnorm/sub", "op": "Const", "attr": {"value": {"tensor": {"dtype": "DT_FLOAT", "tensorShape": {"dim": [{"size": "64"}]}}}, "dtype": {"type": "DT_FLOAT"}}}, {"name": "StatefulPartitionedCall/mobile_net_1/inverted_bottleneck_block_24/conv2d/Conv2D/merged_input", "op": "Const", "attr": {"value": {"tensor": {"dtype": "DT_FLOAT", "tensorShape": {"dim": [{"size": "1"}, {"size": "1"}, {"size": "64"}, {"size": "384"}]}}}, "dtype": {"type": "DT_FLOAT"}}}, {"name": "StatefulPartitionedCall/mobile_net_1/inverted_bottleneck_block_24/batch_normalization/batchnorm/sub", "op": "Const", "attr": {"value": {"tensor": {"dtype": "DT_FLOAT", "tensorShape": {"dim": [{"size": "384"}]}}}, "dtype": {"type": "DT_FLOAT"}}}, {"name": "StatefulPartitionedCall/mobile_net_1/inverted_bottleneck_block_24/depthwise_conv2d/depthwise/ReadVariableOp", "op": "Const", "attr": {"value": {"tensor": {"dtype": "DT_FLOAT", "tensorShape": {"dim": [{"size": "3"}, {"size": "3"}, {"size": "384"}, {"size": "1"}]}}}, "dtype": {"type": "DT_FLOAT"}}}, {"name": "StatefulPartitionedCall/mobile_net_1/inverted_bottleneck_block_24/batch_normalization_1/batchnorm/mul", "op": "Const", "attr": {"value": {"tensor": {"dtype": "DT_FLOAT", "tensorShape": {"dim": [{"size": "384"}]}}}, "dtype": {"type": "DT_FLOAT"}}}, {"name": "StatefulPartitionedCall/mobile_net_1/inverted_bottleneck_block_24/batch_normalization_1/batchnorm/sub", "op": "Const", "attr": {"value": {"tensor": {"dtype": "DT_FLOAT", "tensorShape": {"dim": [{"size": "384"}]}}}, "dtype": {"type": "DT_FLOAT"}}}, {"name": "StatefulPartitionedCall/mobile_net_1/inverted_bottleneck_block_24/conv2d_1/Conv2D/merged_input", "op": "Const", "attr": {"value": {"tensor": {"dtype": "DT_FLOAT", "tensorShape": {"dim": [{"size": "1"}, {"size": "1"}, {"size": "384"}, {"size": "64"}]}}}, "dtype": {"type": "DT_FLOAT"}}}, {"name": "StatefulPartitionedCall/mobile_net_1/inverted_bottleneck_block_22/batch_normalization_2/batchnorm/sub", "op": "Const", "attr": {"value": {"tensor": {"dtype": "DT_FLOAT", "tensorShape": {"dim": [{"size": "32"}]}}}, "dtype": {"type": "DT_FLOAT"}}}, {"name": "StatefulPartitionedCall/mobile_net_1/inverted_bottleneck_block_22/conv2d/Conv2D/merged_input", "op": "Const", "attr": {"value": {"tensor": {"dtype": "DT_FLOAT", "tensorShape": {"dim": [{"size": "1"}, {"size": "1"}, {"size": "32"}, {"size": "192"}]}}}, "dtype": {"type": "DT_FLOAT"}}}, {"name": "StatefulPartitionedCall/mobile_net_1/inverted_bottleneck_block_22/batch_normalization/batchnorm/sub", "op": "Const", "attr": {"value": {"tensor": {"dtype": "DT_FLOAT", "tensorShape": {"dim": [{"size": "192"}]}}}, "dtype": {"type": "DT_FLOAT"}}}, {"name": "StatefulPartitionedCall/mobile_net_1/inverted_bottleneck_block_22/depthwise_conv2d/depthwise/ReadVariableOp", "op": "Const", "attr": {"value": {"tensor": {"dtype": "DT_FLOAT", "tensorShape": {"dim": [{"size": "3"}, {"size": "3"}, {"size": "192"}, {"size": "1"}]}}}, "dtype": {"type": "DT_FLOAT"}}}, {"name": "StatefulPartitionedCall/mobile_net_1/inverted_bottleneck_block_22/batch_normalization_1/batchnorm/mul", "op": "Const", "attr": {"value": {"tensor": {"dtype": "DT_FLOAT", "tensorShape": {"dim": [{"size": "192"}]}}}, "dtype": {"type": "DT_FLOAT"}}}, {"name": "StatefulPartitionedCall/mobile_net_1/inverted_bottleneck_block_22/batch_normalization_1/batchnorm/sub", "op": "Const", "attr": {"value": {"tensor": {"dtype": "DT_FLOAT", "tensorShape": {"dim": [{"size": "192"}]}}}, "dtype": {"type": "DT_FLOAT"}}}, {"name": "StatefulPartitionedCall/mobile_net_1/inverted_bottleneck_block_22/conv2d_1/Conv2D/merged_input", "op": "Const", "attr": {"value": {"tensor": {"dtype": "DT_FLOAT", "tensorShape": {"dim": [{"size": "1"}, {"size": "1"}, {"size": "192"}, {"size": "32"}]}}}, "dtype": {"type": "DT_FLOAT"}}}, {"name": "StatefulPartitionedCall/mobile_net_1/inverted_bottleneck_block_21/batch_normalization_2/batchnorm/sub", "op": "Const", "attr": {"value": {"tensor": {"dtype": "DT_FLOAT", "tensorShape": {"dim": [{"size": "32"}]}}}, "dtype": {"type": "DT_FLOAT"}}}, {"name": "StatefulPartitionedCall/mobile_net_1/inverted_bottleneck_block_21/conv2d/Conv2D/merged_input", "op": "Const", "attr": {"value": {"tensor": {"dtype": "DT_FLOAT", "tensorShape": {"dim": [{"size": "1"}, {"size": "1"}, {"size": "32"}, {"size": "192"}]}}}, "dtype": {"type": "DT_FLOAT"}}}, {"name": "StatefulPartitionedCall/mobile_net_1/inverted_bottleneck_block_21/batch_normalization/batchnorm/sub", "op": "Const", "attr": {"value": {"tensor": {"dtype": "DT_FLOAT", "tensorShape": {"dim": [{"size": "192"}]}}}, "dtype": {"type": "DT_FLOAT"}}}, {"name": "StatefulPartitionedCall/mobile_net_1/inverted_bottleneck_block_21/depthwise_conv2d/depthwise/ReadVariableOp", "op": "Const", "attr": {"value": {"tensor": {"dtype": "DT_FLOAT", "tensorShape": {"dim": [{"size": "3"}, {"size": "3"}, {"size": "192"}, {"size": "1"}]}}}, "dtype": {"type": "DT_FLOAT"}}}, {"name": "StatefulPartitionedCall/mobile_net_1/inverted_bottleneck_block_21/batch_normalization_1/batchnorm/mul", "op": "Const", "attr": {"value": {"tensor": {"dtype": "DT_FLOAT", "tensorShape": {"dim": [{"size": "192"}]}}}, "dtype": {"type": "DT_FLOAT"}}}, {"name": "StatefulPartitionedCall/mobile_net_1/inverted_bottleneck_block_21/batch_normalization_1/batchnorm/sub", "op": "Const", "attr": {"value": {"tensor": {"dtype": "DT_FLOAT", "tensorShape": {"dim": [{"size": "192"}]}}}, "dtype": {"type": "DT_FLOAT"}}}, {"name": "StatefulPartitionedCall/mobile_net_1/inverted_bottleneck_block_21/conv2d_1/Conv2D/merged_input", "op": "Const", "attr": {"value": {"tensor": {"dtype": "DT_FLOAT", "tensorShape": {"dim": [{"size": "1"}, {"size": "1"}, {"size": "192"}, {"size": "32"}]}}}, "dtype": {"type": "DT_FLOAT"}}}, {"name": "StatefulPartitionedCall/mobile_net_1/inverted_bottleneck_block_19/batch_normalization_2/batchnorm/sub", "op": "Const", "attr": {"value": {"tensor": {"dtype": "DT_FLOAT", "tensorShape": {"dim": [{"size": "24"}]}}}, "dtype": {"type": "DT_FLOAT"}}}, {"name": "StatefulPartitionedCall/mobile_net_1/inverted_bottleneck_block_19/conv2d/Conv2D/merged_input", "op": "Const", "attr": {"value": {"tensor": {"dtype": "DT_FLOAT", "tensorShape": {"dim": [{"size": "1"}, {"size": "1"}, {"size": "24"}, {"size": "144"}]}}}, "dtype": {"type": "DT_FLOAT"}}}, {"name": "StatefulPartitionedCall/mobile_net_1/inverted_bottleneck_block_19/batch_normalization/batchnorm/sub", "op": "Const", "attr": {"value": {"tensor": {"dtype": "DT_FLOAT", "tensorShape": {"dim": [{"size": "144"}]}}}, "dtype": {"type": "DT_FLOAT"}}}, {"name": "StatefulPartitionedCall/mobile_net_1/inverted_bottleneck_block_19/depthwise_conv2d/depthwise/ReadVariableOp", "op": "Const", "attr": {"value": {"tensor": {"dtype": "DT_FLOAT", "tensorShape": {"dim": [{"size": "3"}, {"size": "3"}, {"size": "144"}, {"size": "1"}]}}}, "dtype": {"type": "DT_FLOAT"}}}, {"name": "StatefulPartitionedCall/mobile_net_1/inverted_bottleneck_block_19/batch_normalization_1/batchnorm/mul", "op": "Const", "attr": {"value": {"tensor": {"dtype": "DT_FLOAT", "tensorShape": {"dim": [{"size": "144"}]}}}, "dtype": {"type": "DT_FLOAT"}}}, {"name": "StatefulPartitionedCall/mobile_net_1/inverted_bottleneck_block_19/batch_normalization_1/batchnorm/sub", "op": "Const", "attr": {"value": {"tensor": {"dtype": "DT_FLOAT", "tensorShape": {"dim": [{"size": "144"}]}}}, "dtype": {"type": "DT_FLOAT"}}}, {"name": "StatefulPartitionedCall/mobile_net_1/inverted_bottleneck_block_19/conv2d_1/Conv2D/merged_input", "op": "Const", "attr": {"value": {"tensor": {"dtype": "DT_FLOAT", "tensorShape": {"dim": [{"size": "1"}, {"size": "1"}, {"size": "144"}, {"size": "24"}]}}}, "dtype": {"type": "DT_FLOAT"}}}, {"name": "StatefulPartitionedCall/map/TensorArrayV2_1/element_shape", "op": "Const", "device": "/device:CPU:0", "attr": {"value": {"tensor": {"dtype": "DT_INT32", "tensorShape": {"dim": [{"size": "3"}]}}}, "dtype": {"type": "DT_INT32"}}}, {"name": "StatefulPartitionedCall/map/TensorArrayV2_1/num_elements", "op": "Const", "device": "/device:CPU:0", "attr": {"value": {"tensor": {"dtype": "DT_INT32", "tensorShape": {}}}, "dtype": {"type": "DT_INT32"}}}, {"name": "StatefulPartitionedCall/map/TensorArrayUnstack/TensorListFromTensor/element_shape", "op": "Const", "device": "/device:CPU:0", "attr": {"value": {"tensor": {"dtype": "DT_INT32", "tensorShape": {"dim": [{"size": "3"}]}}}, "dtype": {"type": "DT_INT32"}}}, {"name": "StatefulPartitionedCall/map/while/maximum_iterations", "op": "Const", "device": "/device:CPU:0", "attr": {"value": {"tensor": {"dtype": "DT_INT32", "tensorShape": {}}}, "dtype": {"type": "DT_INT32"}}}, {"name": "StatefulPartitionedCall/map/Const", "op": "Const", "device": "/device:CPU:0", "attr": {"value": {"tensor": {"dtype": "DT_INT32", "tensorShape": {}}}, "dtype": {"type": "DT_INT32"}}}, {"name": "StatefulPartitionedCall/map/while/loop_counter", "op": "Const", "device": "/device:CPU:0", "attr": {"value": {"tensor": {"dtype": "DT_INT32", "tensorShape": {}}}, "dtype": {"type": "DT_INT32"}}}, {"name": "StatefulPartitionedCall/map/TensorArrayV2Stack/TensorListStack/element_shape", "op": "Const", "device": "/device:CPU:0", "attr": {"value": {"tensor": {"dtype": "DT_INT32", "tensorShape": {"dim": [{"size": "3"}]}}}, "dtype": {"type": "DT_INT32"}}}, {"name": "StatefulPartitionedCall/mobile_net_1/conv2dbn_block_2/conv2d/Conv2D/merged_input", "op": "Const", "attr": {"value": {"tensor": {"dtype": "DT_FLOAT", "tensorShape": {"dim": [{"size": "3"}, {"size": "3"}, {"size": "3"}, {"size": "32"}]}}}, "dtype": {"type": "DT_FLOAT"}}}, {"name": "StatefulPartitionedCall/mobile_net_1/conv2dbn_block_2/batch_normalization/batchnorm/sub", "op": "Const", "attr": {"value": {"tensor": {"dtype": "DT_FLOAT", "tensorShape": {"dim": [{"size": "32"}]}}}, "dtype": {"type": "DT_FLOAT"}}}, {"name": "StatefulPartitionedCall/aspp_1/spatial_pyramid_pooling/sequential_3/conv2d_2/Conv2D/merged_input", "op": "Const", "attr": {"value": {"tensor": {"dtype": "DT_FLOAT", "tensorShape": {"dim": [{"size": "1"}, {"size": "1"}, {"size": "512"}, {"size": "256"}]}}}, "dtype": {"type": "DT_FLOAT"}}}, {"name": "StatefulPartitionedCall/mobile_net_1/inverted_bottleneck_block_17/depthwise_conv2d/depthwise/ReadVariableOp", "op": "Const", "attr": {"value": {"tensor": {"dtype": "DT_FLOAT", "tensorShape": {"dim": [{"size": "3"}, {"size": "3"}, {"size": "32"}, {"size": "1"}]}}}, "dtype": {"type": "DT_FLOAT"}}}, {"name": "StatefulPartitionedCall/mobile_net_1/inverted_bottleneck_block_17/batch_normalization/batchnorm/mul", "op": "Const", "attr": {"value": {"tensor": {"dtype": "DT_FLOAT", "tensorShape": {"dim": [{"size": "32"}]}}}, "dtype": {"type": "DT_FLOAT"}}}, {"name": "StatefulPartitionedCall/mobile_net_1/inverted_bottleneck_block_17/batch_normalization/batchnorm/sub", "op": "Const", "attr": {"value": {"tensor": {"dtype": "DT_FLOAT", "tensorShape": {"dim": [{"size": "32"}]}}}, "dtype": {"type": "DT_FLOAT"}}}, {"name": "StatefulPartitionedCall/mobile_net_1/inverted_bottleneck_block_17/conv2d/Conv2D/merged_input", "op": "Const", "attr": {"value": {"tensor": {"dtype": "DT_FLOAT", "tensorShape": {"dim": [{"size": "1"}, {"size": "1"}, {"size": "32"}, {"size": "16"}]}}}, "dtype": {"type": "DT_FLOAT"}}}, {"name": "StatefulPartitionedCall/mobile_net_1/inverted_bottleneck_block_17/batch_normalization_1/batchnorm/sub", "op": "Const", "attr": {"value": {"tensor": {"dtype": "DT_FLOAT", "tensorShape": {"dim": [{"size": "16"}]}}}, "dtype": {"type": "DT_FLOAT"}}}, {"name": "StatefulPartitionedCall/mobile_net_1/inverted_bottleneck_block_18/conv2d/Conv2D/merged_input", "op": "Const", "attr": {"value": {"tensor": {"dtype": "DT_FLOAT", "tensorShape": {"dim": [{"size": "1"}, {"size": "1"}, {"size": "16"}, {"size": "96"}]}}}, "dtype": {"type": "DT_FLOAT"}}}, {"name": "StatefulPartitionedCall/aspp_1/spatial_pyramid_pooling/sequential_3/batch_normalization_2/batchnorm/sub", "op": "Const", "attr": {"value": {"tensor": {"dtype": "DT_FLOAT", "tensorShape": {"dim": [{"size": "256"}]}}}, "dtype": {"type": "DT_FLOAT"}}}, {"name": "StatefulPartitionedCall/mobile_net_1/inverted_bottleneck_block_18/batch_normalization/batchnorm/sub", "op": "Const", "attr": {"value": {"tensor": {"dtype": "DT_FLOAT", "tensorShape": {"dim": [{"size": "96"}]}}}, "dtype": {"type": "DT_FLOAT"}}}, {"name": "StatefulPartitionedCall/mobile_net_1/inverted_bottleneck_block_18/depthwise_conv2d/depthwise/ReadVariableOp", "op": "Const", "attr": {"value": {"tensor": {"dtype": "DT_FLOAT", "tensorShape": {"dim": [{"size": "3"}, {"size": "3"}, {"size": "96"}, {"size": "1"}]}}}, "dtype": {"type": "DT_FLOAT"}}}, {"name": "StatefulPartitionedCall/mobile_net_1/inverted_bottleneck_block_18/batch_normalization_1/batchnorm/mul", "op": "Const", "attr": {"value": {"tensor": {"dtype": "DT_FLOAT", "tensorShape": {"dim": [{"size": "96"}]}}}, "dtype": {"type": "DT_FLOAT"}}}, {"name": "StatefulPartitionedCall/mobile_net_1/inverted_bottleneck_block_18/batch_normalization_1/batchnorm/sub", "op": "Const", "attr": {"value": {"tensor": {"dtype": "DT_FLOAT", "tensorShape": {"dim": [{"size": "96"}]}}}, "dtype": {"type": "DT_FLOAT"}}}, {"name": "StatefulPartitionedCall/mobile_net_1/inverted_bottleneck_block_18/conv2d_1/Conv2D/merged_input", "op": "Const", "attr": {"value": {"tensor": {"dtype": "DT_FLOAT", "tensorShape": {"dim": [{"size": "1"}, {"size": "1"}, {"size": "96"}, {"size": "24"}]}}}, "dtype": {"type": "DT_FLOAT"}}}, {"name": "StatefulPartitionedCall/mobile_net_1/inverted_bottleneck_block_18/batch_normalization_2/batchnorm/sub", "op": "Const", "attr": {"value": {"tensor": {"dtype": "DT_FLOAT", "tensorShape": {"dim": [{"size": "24"}]}}}, "dtype": {"type": "DT_FLOAT"}}}, {"name": "StatefulPartitionedCall/segmentation_head_1/segmentation_output/Conv2D/ReadVariableOp", "op": "Const", "attr": {"value": {"tensor": {"dtype": "DT_FLOAT", "tensorShape": {"dim": [{"size": "1"}, {"size": "1"}, {"size": "256"}, {"size": "2"}]}}}, "dtype": {"type": "DT_FLOAT"}}}, {"name": "StatefulPartitionedCall/mobile_net_1/inverted_bottleneck_block_20/conv2d/Conv2D/merged_input", "op": "Const", "attr": {"value": {"tensor": {"dtype": "DT_FLOAT", "tensorShape": {"dim": [{"size": "1"}, {"size": "1"}, {"size": "24"}, {"size": "144"}]}}}, "dtype": {"type": "DT_FLOAT"}}}, {"name": "StatefulPartitionedCall/segmentation_head_1/segmentation_output/BiasAdd/ReadVariableOp", "op": "Const", "attr": {"value": {"tensor": {"dtype": "DT_FLOAT", "tensorShape": {"dim": [{"size": "2"}]}}}, "dtype": {"type": "DT_FLOAT"}}}, {"name": "StatefulPartitionedCall/mobile_net_1/inverted_bottleneck_block_20/batch_normalization/batchnorm/sub", "op": "Const", "attr": {"value": {"tensor": {"dtype": "DT_FLOAT", "tensorShape": {"dim": [{"size": "144"}]}}}, "dtype": {"type": "DT_FLOAT"}}}, {"name": "StatefulPartitionedCall/mobile_net_1/inverted_bottleneck_block_20/depthwise_conv2d/depthwise/ReadVariableOp", "op": "Const", "attr": {"value": {"tensor": {"dtype": "DT_FLOAT", "tensorShape": {"dim": [{"size": "3"}, {"size": "3"}, {"size": "144"}, {"size": "1"}]}}}, "dtype": {"type": "DT_FLOAT"}}}, {"name": "StatefulPartitionedCall/mobile_net_1/inverted_bottleneck_block_20/batch_normalization_1/batchnorm/mul", "op": "Const", "attr": {"value": {"tensor": {"dtype": "DT_FLOAT", "tensorShape": {"dim": [{"size": "144"}]}}}, "dtype": {"type": "DT_FLOAT"}}}, {"name": "StatefulPartitionedCall/mobile_net_1/inverted_bottleneck_block_20/batch_normalization_1/batchnorm/sub", "op": "Const", "attr": {"value": {"tensor": {"dtype": "DT_FLOAT", "tensorShape": {"dim": [{"size": "144"}]}}}, "dtype": {"type": "DT_FLOAT"}}}, {"name": "StatefulPartitionedCall/mobile_net_1/inverted_bottleneck_block_20/conv2d_1/Conv2D/merged_input", "op": "Const", "attr": {"value": {"tensor": {"dtype": "DT_FLOAT", "tensorShape": {"dim": [{"size": "1"}, {"size": "1"}, {"size": "144"}, {"size": "32"}]}}}, "dtype": {"type": "DT_FLOAT"}}}, {"name": "StatefulPartitionedCall/resize/size", "op": "Const", "attr": {"value": {"tensor": {"dtype": "DT_INT32", "tensorShape": {"dim": [{"size": "2"}]}}}, "dtype": {"type": "DT_INT32"}}}, {"name": "StatefulPartitionedCall/mobile_net_1/inverted_bottleneck_block_20/batch_normalization_2/batchnorm/sub", "op": "Const", "attr": {"value": {"tensor": {"dtype": "DT_FLOAT", "tensorShape": {"dim": [{"size": "32"}]}}}, "dtype": {"type": "DT_FLOAT"}}}, {"name": "inputs", "op": "Placeholder", "attr": {"shape": {"shape": {"dim": [{"size": "1"}, {"size": "-1"}, {"size": "-1"}, {"size": "3"}]}}, "dtype": {"type": "DT_UINT8"}}}, {"name": "StatefulPartitionedCall/mobile_net_1/inverted_bottleneck_block_23/conv2d/Conv2D/merged_input", "op": "Const", "attr": {"value": {"tensor": {"dtype": "DT_FLOAT", "tensorShape": {"dim": [{"size": "1"}, {"size": "1"}, {"size": "32"}, {"size": "192"}]}}}, "dtype": {"type": "DT_FLOAT"}}}, {"name": "StatefulPartitionedCall/mobile_net_1/inverted_bottleneck_block_23/batch_normalization/batchnorm/sub", "op": "Const", "attr": {"value": {"tensor": {"dtype": "DT_FLOAT", "tensorShape": {"dim": [{"size": "192"}]}}}, "dtype": {"type": "DT_FLOAT"}}}, {"name": "StatefulPartitionedCall/mobile_net_1/inverted_bottleneck_block_23/depthwise_conv2d/depthwise/ReadVariableOp", "op": "Const", "attr": {"value": {"tensor": {"dtype": "DT_FLOAT", "tensorShape": {"dim": [{"size": "3"}, {"size": "3"}, {"size": "192"}, {"size": "1"}]}}}, "dtype": {"type": "DT_FLOAT"}}}, {"name": "StatefulPartitionedCall/mobile_net_1/inverted_bottleneck_block_23/batch_normalization_1/batchnorm/mul", "op": "Const", "attr": {"value": {"tensor": {"dtype": "DT_FLOAT", "tensorShape": {"dim": [{"size": "192"}]}}}, "dtype": {"type": "DT_FLOAT"}}}, {"name": "StatefulPartitionedCall/mobile_net_1/inverted_bottleneck_block_23/batch_normalization_1/batchnorm/sub", "op": "Const", "attr": {"value": {"tensor": {"dtype": "DT_FLOAT", "tensorShape": {"dim": [{"size": "192"}]}}}, "dtype": {"type": "DT_FLOAT"}}}, {"name": "StatefulPartitionedCall/mobile_net_1/inverted_bottleneck_block_23/conv2d_1/Conv2D/merged_input", "op": "Const", "attr": {"value": {"tensor": {"dtype": "DT_FLOAT", "tensorShape": {"dim": [{"size": "1"}, {"size": "1"}, {"size": "192"}, {"size": "64"}]}}}, "dtype": {"type": "DT_FLOAT"}}}, {"name": "StatefulPartitionedCall/mobile_net_1/inverted_bottleneck_block_23/batch_normalization_2/batchnorm/sub", "op": "Const", "attr": {"value": {"tensor": {"dtype": "DT_FLOAT", "tensorShape": {"dim": [{"size": "64"}]}}}, "dtype": {"type": "DT_FLOAT"}}}, {"name": "StatefulPartitionedCall/mobile_net_1/inverted_bottleneck_block_27/conv2d/Conv2D/merged_input", "op": "Const", "attr": {"value": {"tensor": {"dtype": "DT_FLOAT", "tensorShape": {"dim": [{"size": "1"}, {"size": "1"}, {"size": "64"}, {"size": "384"}]}}}, "dtype": {"type": "DT_FLOAT"}}}, {"name": "StatefulPartitionedCall/mobile_net_1/inverted_bottleneck_block_27/batch_normalization/batchnorm/sub", "op": "Const", "attr": {"value": {"tensor": {"dtype": "DT_FLOAT", "tensorShape": {"dim": [{"size": "384"}]}}}, "dtype": {"type": "DT_FLOAT"}}}, {"name": "StatefulPartitionedCall/mobile_net_1/inverted_bottleneck_block_27/depthwise_conv2d/depthwise/ReadVariableOp", "op": "Const", "attr": {"value": {"tensor": {"dtype": "DT_FLOAT", "tensorShape": {"dim": [{"size": "3"}, {"size": "3"}, {"size": "384"}, {"size": "1"}]}}}, "dtype": {"type": "DT_FLOAT"}}}, {"name": "StatefulPartitionedCall/mobile_net_1/inverted_bottleneck_block_27/batch_normalization_1/batchnorm/mul", "op": "Const", "attr": {"value": {"tensor": {"dtype": "DT_FLOAT", "tensorShape": {"dim": [{"size": "384"}]}}}, "dtype": {"type": "DT_FLOAT"}}}, {"name": "StatefulPartitionedCall/mobile_net_1/inverted_bottleneck_block_27/batch_normalization_1/batchnorm/sub", "op": "Const", "attr": {"value": {"tensor": {"dtype": "DT_FLOAT", "tensorShape": {"dim": [{"size": "384"}]}}}, "dtype": {"type": "DT_FLOAT"}}}, {"name": "StatefulPartitionedCall/mobile_net_1/inverted_bottleneck_block_27/conv2d_1/Conv2D/merged_input", "op": "Const", "attr": {"value": {"tensor": {"dtype": "DT_FLOAT", "tensorShape": {"dim": [{"size": "1"}, {"size": "1"}, {"size": "384"}, {"size": "96"}]}}}, "dtype": {"type": "DT_FLOAT"}}}, {"name": "StatefulPartitionedCall/mobile_net_1/inverted_bottleneck_block_27/batch_normalization_2/batchnorm/sub", "op": "Const", "attr": {"value": {"tensor": {"dtype": "DT_FLOAT", "tensorShape": {"dim": [{"size": "96"}]}}}, "dtype": {"type": "DT_FLOAT"}}}, {"name": "StatefulPartitionedCall/mobile_net_1/inverted_bottleneck_block_30/conv2d/Conv2D/merged_input", "op": "Const", "attr": {"value": {"tensor": {"dtype": "DT_FLOAT", "tensorShape": {"dim": [{"size": "1"}, {"size": "1"}, {"size": "96"}, {"size": "576"}]}}}, "dtype": {"type": "DT_FLOAT"}}}, {"name": "StatefulPartitionedCall/mobile_net_1/inverted_bottleneck_block_30/batch_normalization/batchnorm/sub", "op": "Const", "attr": {"value": {"tensor": {"dtype": "DT_FLOAT", "tensorShape": {"dim": [{"size": "576"}]}}}, "dtype": {"type": "DT_FLOAT"}}}, {"name": "StatefulPartitionedCall/mobile_net_1/inverted_bottleneck_block_30/depthwise_conv2d/depthwise/SpaceToBatchND/block_shape", "op": "Const", "attr": {"value": {"tensor": {"dtype": "DT_INT32", "tensorShape": {"dim": [{"size": "2"}]}}}, "dtype": {"type": "DT_INT32"}}}, {"name": "StatefulPartitionedCall/mobile_net_1/inverted_bottleneck_block_30/depthwise_conv2d/depthwise/SpaceToBatchND/paddings", "op": "Const", "attr": {"value": {"tensor": {"dtype": "DT_INT32", "tensorShape": {"dim": [{"size": "2"}, {"size": "2"}]}}}, "dtype": {"type": "DT_INT32"}}}, {"name": "StatefulPartitionedCall/mobile_net_1/inverted_bottleneck_block_30/depthwise_conv2d/depthwise/ReadVariableOp", "op": "Const", "attr": {"value": {"tensor": {"dtype": "DT_FLOAT", "tensorShape": {"dim": [{"size": "3"}, {"size": "3"}, {"size": "576"}, {"size": "1"}]}}}, "dtype": {"type": "DT_FLOAT"}}}, {"name": "StatefulPartitionedCall/mobile_net_1/inverted_bottleneck_block_30/depthwise_conv2d/depthwise/BatchToSpaceND/block_shape", "op": "Const", "attr": {"value": {"tensor": {"dtype": "DT_INT32", "tensorShape": {"dim": [{"size": "2"}]}}}, "dtype": {"type": "DT_INT32"}}}, {"name": "StatefulPartitionedCall/mobile_net_1/inverted_bottleneck_block_30/depthwise_conv2d/depthwise/BatchToSpaceND/crops", "op": "Const", "attr": {"value": {"tensor": {"dtype": "DT_INT32", "tensorShape": {"dim": [{"size": "2"}, {"size": "2"}]}}}, "dtype": {"type": "DT_INT32"}}}, {"name": "StatefulPartitionedCall/mobile_net_1/inverted_bottleneck_block_30/batch_normalization_1/batchnorm/mul", "op": "Const", "attr": {"value": {"tensor": {"dtype": "DT_FLOAT", "tensorShape": {"dim": [{"size": "576"}]}}}, "dtype": {"type": "DT_FLOAT"}}}, {"name": "StatefulPartitionedCall/mobile_net_1/inverted_bottleneck_block_30/batch_normalization_1/batchnorm/sub", "op": "Const", "attr": {"value": {"tensor": {"dtype": "DT_FLOAT", "tensorShape": {"dim": [{"size": "576"}]}}}, "dtype": {"type": "DT_FLOAT"}}}, {"name": "StatefulPartitionedCall/mobile_net_1/inverted_bottleneck_block_30/conv2d_1/Conv2D/merged_input", "op": "Const", "attr": {"value": {"tensor": {"dtype": "DT_FLOAT", "tensorShape": {"dim": [{"size": "1"}, {"size": "1"}, {"size": "576"}, {"size": "160"}]}}}, "dtype": {"type": "DT_FLOAT"}}}, {"name": "StatefulPartitionedCall/mobile_net_1/inverted_bottleneck_block_30/batch_normalization_2/batchnorm/sub", "op": "Const", "attr": {"value": {"tensor": {"dtype": "DT_FLOAT", "tensorShape": {"dim": [{"size": "160"}]}}}, "dtype": {"type": "DT_FLOAT"}}}, {"name": "StatefulPartitionedCall/mobile_net_1/inverted_bottleneck_block_33/conv2d/Conv2D/merged_input", "op": "Const", "attr": {"value": {"tensor": {"dtype": "DT_FLOAT", "tensorShape": {"dim": [{"size": "1"}, {"size": "1"}, {"size": "160"}, {"size": "960"}]}}}, "dtype": {"type": "DT_FLOAT"}}}, {"name": "StatefulPartitionedCall/mobile_net_1/inverted_bottleneck_block_33/batch_normalization/batchnorm/sub", "op": "Const", "attr": {"value": {"tensor": {"dtype": "DT_FLOAT", "tensorShape": {"dim": [{"size": "960"}]}}}, "dtype": {"type": "DT_FLOAT"}}}, {"name": "StatefulPartitionedCall/mobile_net_1/inverted_bottleneck_block_33/depthwise_conv2d/depthwise/SpaceToBatchND/block_shape", "op": "Const", "attr": {"value": {"tensor": {"dtype": "DT_INT32", "tensorShape": {"dim": [{"size": "2"}]}}}, "dtype": {"type": "DT_INT32"}}}, {"name": "StatefulPartitionedCall/mobile_net_1/inverted_bottleneck_block_33/depthwise_conv2d/depthwise/SpaceToBatchND/paddings", "op": "Const", "attr": {"value": {"tensor": {"dtype": "DT_INT32", "tensorShape": {"dim": [{"size": "2"}, {"size": "2"}]}}}, "dtype": {"type": "DT_INT32"}}}, {"name": "StatefulPartitionedCall/mobile_net_1/inverted_bottleneck_block_33/depthwise_conv2d/depthwise/ReadVariableOp", "op": "Const", "attr": {"value": {"tensor": {"dtype": "DT_FLOAT", "tensorShape": {"dim": [{"size": "3"}, {"size": "3"}, {"size": "960"}, {"size": "1"}]}}}, "dtype": {"type": "DT_FLOAT"}}}, {"name": "StatefulPartitionedCall/mobile_net_1/inverted_bottleneck_block_33/depthwise_conv2d/depthwise/BatchToSpaceND/block_shape", "op": "Const", "attr": {"value": {"tensor": {"dtype": "DT_INT32", "tensorShape": {"dim": [{"size": "2"}]}}}, "dtype": {"type": "DT_INT32"}}}, {"name": "StatefulPartitionedCall/mobile_net_1/inverted_bottleneck_block_33/depthwise_conv2d/depthwise/BatchToSpaceND/crops", "op": "Const", "attr": {"value": {"tensor": {"dtype": "DT_INT32", "tensorShape": {"dim": [{"size": "2"}, {"size": "2"}]}}}, "dtype": {"type": "DT_INT32"}}}, {"name": "StatefulPartitionedCall/mobile_net_1/inverted_bottleneck_block_33/batch_normalization_1/batchnorm/mul", "op": "Const", "attr": {"value": {"tensor": {"dtype": "DT_FLOAT", "tensorShape": {"dim": [{"size": "960"}]}}}, "dtype": {"type": "DT_FLOAT"}}}, {"name": "StatefulPartitionedCall/mobile_net_1/inverted_bottleneck_block_33/batch_normalization_1/batchnorm/sub", "op": "Const", "attr": {"value": {"tensor": {"dtype": "DT_FLOAT", "tensorShape": {"dim": [{"size": "960"}]}}}, "dtype": {"type": "DT_FLOAT"}}}, {"name": "StatefulPartitionedCall/mobile_net_1/inverted_bottleneck_block_33/conv2d_1/Conv2D/merged_input", "op": "Const", "attr": {"value": {"tensor": {"dtype": "DT_FLOAT", "tensorShape": {"dim": [{"size": "1"}, {"size": "1"}, {"size": "960"}, {"size": "320"}]}}}, "dtype": {"type": "DT_FLOAT"}}}, {"name": "StatefulPartitionedCall/mobile_net_1/inverted_bottleneck_block_33/batch_normalization_2/batchnorm/sub", "op": "Const", "attr": {"value": {"tensor": {"dtype": "DT_FLOAT", "tensorShape": {"dim": [{"size": "320"}]}}}, "dtype": {"type": "DT_FLOAT"}}}, {"name": "StatefulPartitionedCall/aspp_1/spatial_pyramid_pooling/sequential_1/global_average_pooling2d/Mean/reduction_indices", "op": "Const", "attr": {"value": {"tensor": {"dtype": "DT_INT32", "tensorShape": {"dim": [{"size": "2"}]}}}, "dtype": {"type": "DT_INT32"}}}, {"name": "StatefulPartitionedCall/aspp_1/spatial_pyramid_pooling/sequential_1/reshape/Reshape/shape", "op": "Const", "attr": {"value": {"tensor": {"dtype": "DT_INT32", "tensorShape": {"dim": [{"size": "4"}]}}}, "dtype": {"type": "DT_INT32"}}}, {"name": "StatefulPartitionedCall/aspp_1/spatial_pyramid_pooling/sequential_1/sequential_2/conv2d_1/Conv2D/merged_input", "op": "Const", "attr": {"value": {"tensor": {"dtype": "DT_FLOAT", "tensorShape": {"dim": [{"size": "1"}, {"size": "1"}, {"size": "320"}, {"size": "256"}]}}}, "dtype": {"type": "DT_FLOAT"}}}, {"name": "StatefulPartitionedCall/aspp_1/spatial_pyramid_pooling/sequential_1/sequential_2/batch_normalization_1/batchnorm/sub", "op": "Const", "attr": {"value": {"tensor": {"dtype": "DT_FLOAT", "tensorShape": {"dim": [{"size": "256"}]}}}, "dtype": {"type": "DT_FLOAT"}}}, {"name": "StatefulPartitionedCall/aspp_1/spatial_pyramid_pooling/strided_slice", "op": "Const", "attr": {"value": {"tensor": {"dtype": "DT_INT32", "tensorShape": {"dim": [{"size": "2"}]}}}, "dtype": {"type": "DT_INT32"}}}, {"name": "StatefulPartitionedCall/aspp_1/spatial_pyramid_pooling/concat/axis", "op": "Const", "attr": {"value": {"tensor": {"dtype": "DT_INT32", "tensorShape": {}}}, "dtype": {"type": "DT_INT32"}}}, {"name": "StatefulPartitionedCall/map/TensorArrayV2_2", "op": "TensorListReserve", "input": ["StatefulPartitionedCall/map/TensorArrayV2_2/element_shape", "StatefulPartitionedCall/map/TensorArrayV2_2/num_elements"], "device": "/device:CPU:0", "attr": {"shape_type": {"type": "DT_INT32"}, "element_dtype": {"type": "DT_FLOAT"}}, "experimentalType": {"typeId": "TFT_PRODUCT", "args": [{"typeId": "TFT_ARRAY", "args": [{"typeId": "TFT_TENSOR", "args": [{"typeId": "TFT_FLOAT"}]}]}]}}, {"name": "StatefulPartitionedCall/map/TensorArrayV2_1", "op": "TensorListReserve", "input": ["StatefulPartitionedCall/map/TensorArrayV2_1/element_shape", "StatefulPartitionedCall/map/TensorArrayV2_1/num_elements"], "device": "/device:CPU:0", "attr": {"shape_type": {"type": "DT_INT32"}, "element_dtype": {"type": "DT_FLOAT"}}, "experimentalType": {"typeId": "TFT_PRODUCT", "args": [{"typeId": "TFT_ARRAY", "args": [{"typeId": "TFT_TENSOR", "args": [{"typeId": "TFT_FLOAT"}]}]}]}}, {"name": "StatefulPartitionedCall/map/while/enter/_284", "op": "Enter", "input": ["StatefulPartitionedCall/map/while/maximum_iterations"], "device": "/device:CPU:0", "attr": {"is_constant": {"b": false}, "frame_name": {"s": "U3RhdGVmdWxQYXJ0aXRpb25lZENhbGwvbWFwL3doaWxl"}, "T": {"type": "DT_INT32"}, "parallel_iterations": {"i": "32"}}}, {"name": "StatefulPartitionedCall/map/while/enter/_285", "op": "Enter", "input": ["StatefulPartitionedCall/map/Const"], "device": "/device:CPU:0", "attr": {"is_constant": {"b": false}, "frame_name": {"s": "U3RhdGVmdWxQYXJ0aXRpb25lZENhbGwvbWFwL3doaWxl"}, "T": {"type": "DT_INT32"}, "parallel_iterations": {"i": "32"}}}, {"name": "StatefulPartitionedCall/map/while/enter/_283", "op": "Enter", "input": ["StatefulPartitionedCall/map/while/loop_counter"], "device": "/device:CPU:0", "attr": {"is_constant": {"b": false}, "frame_name": {"s": "U3RhdGVmdWxQYXJ0aXRpb25lZENhbGwvbWFwL3doaWxl"}, "T": {"type": "DT_INT32"}, "parallel_iterations": {"i": "32"}}}, {"name": "StatefulPartitionedCall/Cast", "op": "Cast", "input": ["inputs"], "device": "/device:CPU:0", "attr": {"SrcT": {"type": "DT_UINT8"}, "DstT": {"type": "DT_FLOAT"}, "Truncate": {"b": false}}}, {"name": "StatefulPartitionedCall/map/while/enter/_287", "op": "Enter", "input": ["StatefulPartitionedCall/map/TensorArrayV2_2"], "device": "/device:CPU:0", "attr": {"is_constant": {"b": false}, "frame_name": {"s": "U3RhdGVmdWxQYXJ0aXRpb25lZENhbGwvbWFwL3doaWxl"}, "T": {"type": "DT_VARIANT"}, "parallel_iterations": {"i": "32"}}}, {"name": "StatefulPartitionedCall/map/while/enter/_286", "op": "Enter", "input": ["StatefulPartitionedCall/map/TensorArrayV2_1"], "device": "/device:CPU:0", "attr": {"is_constant": {"b": false}, "frame_name": {"s": "U3RhdGVmdWxQYXJ0aXRpb25lZENhbGwvbWFwL3doaWxl"}, "T": {"type": "DT_VARIANT"}, "parallel_iterations": {"i": "32"}}}, {"name": "StatefulPartitionedCall/map/while/merge/_290", "op": "Merge", "input": ["StatefulPartitionedCall/map/while/enter/_284", "StatefulPartitionedCall/map/while/next_iteration/_311"], "device": "/device:CPU:0", "attr": {"N": {"i": "2"}, "T": {"type": "DT_INT32"}}}, {"name": "StatefulPartitionedCall/map/while/merge/_291", "op": "Merge", "input": ["StatefulPartitionedCall/map/while/enter/_285", "StatefulPartitionedCall/map/while/next_iteration/_312"], "device": "/device:CPU:0", "attr": {"N": {"i": "2"}, "T": {"type": "DT_INT32"}}}, {"name": "StatefulPartitionedCall/map/while/merge/_289", "op": "Merge", "input": ["StatefulPartitionedCall/map/while/enter/_283", "StatefulPartitionedCall/map/while/next_iteration/_310"], "device": "/device:CPU:0", "attr": {"N": {"i": "2"}, "_has_manual_control_dependencies": {"b": true}, "T": {"type": "DT_INT32"}}}, {"name": "StatefulPartitionedCall/map/TensorArrayUnstack/TensorListFromTensor", "op": "TensorListFromTensor", "input": ["StatefulPartitionedCall/Cast", "StatefulPartitionedCall/map/TensorArrayUnstack/TensorListFromTensor/element_shape"], "device": "/device:CPU:0", "attr": {"shape_type": {"type": "DT_INT32"}, "element_dtype": {"type": "DT_FLOAT"}}, "experimentalType": {"typeId": "TFT_PRODUCT", "args": [{"typeId": "TFT_ARRAY", "args": [{"typeId": "TFT_TENSOR", "args": [{"typeId": "TFT_FLOAT"}]}]}]}}, {"name": "StatefulPartitionedCall/map/while/merge/_293", "op": "Merge", "input": ["StatefulPartitionedCall/map/while/enter/_287", "StatefulPartitionedCall/map/while/next_iteration/_314"], "device": "/device:CPU:0", "attr": {"N": {"i": "2"}, "T": {"type": "DT_VARIANT"}}}, {"name": "StatefulPartitionedCall/map/while/merge/_292", "op": "Merge", "input": ["StatefulPartitionedCall/map/while/enter/_286", "StatefulPartitionedCall/map/while/next_iteration/_313"], "device": "/device:CPU:0", "attr": {"N": {"i": "2"}, "T": {"type": "DT_VARIANT"}}}, {"name": "StatefulPartitionedCall/map/while/cond/_281/map/while/Less_1", "op": "Less", "input": ["StatefulPartitionedCall/map/while/merge/_289", "StatefulPartitionedCall/map/while/merge/_290"], "device": "/device:CPU:0", "attr": {"T": {"type": "DT_INT32"}}}, {"name": "StatefulPartitionedCall/map/while/cond/_281/map/while/Less/y", "op": "Const", "input": ["^StatefulPartitionedCall/map/while/merge/_289"], "device": "/device:CPU:0", "attr": {"value": {"tensor": {"dtype": "DT_INT32", "tensorShape": {}}}, "dtype": {"type": "DT_INT32"}}}, {"name": "StatefulPartitionedCall/map/while/enter/_288", "op": "Enter", "input": ["StatefulPartitionedCall/map/TensorArrayUnstack/TensorListFromTensor"], "device": "/device:CPU:0", "attr": {"is_constant": {"b": false}, "frame_name": {"s": "U3RhdGVmdWxQYXJ0aXRpb25lZENhbGwvbWFwL3doaWxl"}, "T": {"type": "DT_VARIANT"}, "parallel_iterations": {"i": "32"}}}, {"name": "StatefulPartitionedCall/map/while/cond/_281/map/while/Less", "op": "Less", "input": ["StatefulPartitionedCall/map/while/merge/_291", "StatefulPartitionedCall/map/while/cond/_281/map/while/Less/y", "^StatefulPartitionedCall/map/while/merge/_289"], "device": "/device:CPU:0", "attr": {"T": {"type": "DT_INT32"}}}, {"name": "StatefulPartitionedCall/map/while/merge/_294", "op": "Merge", "input": ["StatefulPartitionedCall/map/while/enter/_288", "StatefulPartitionedCall/map/while/next_iteration/_315"], "device": "/device:CPU:0", "attr": {"N": {"i": "2"}, "T": {"type": "DT_VARIANT"}}}, {"name": "StatefulPartitionedCall/map/while/cond/_281/map/while/LogicalAnd", "op": "LogicalAnd", "input": ["StatefulPartitionedCall/map/while/cond/_281/map/while/Less_1", "StatefulPartitionedCall/map/while/cond/_281/map/while/Less"], "device": "/device:CPU:0"}, {"name": "StatefulPartitionedCall/map/while/LoopCond/_295", "op": "LoopCond", "input": ["StatefulPartitionedCall/map/while/cond/_281/map/while/LogicalAnd"], "device": "/device:CPU:0"}, {"name": "StatefulPartitionedCall/map/while/StatefulPartitionedCall/map/TensorArrayV2_2_switch/_300", "op": "Switch", "input": ["StatefulPartitionedCall/map/while/merge/_293", "StatefulPartitionedCall/map/while/LoopCond/_295"], "device": "/device:CPU:0", "attr": {"T": {"type": "DT_VARIANT"}}}, {"name": "StatefulPartitionedCall/map/while/StatefulPartitionedCall/map/while/maximum_iterations_switch/_297", "op": "Switch", "input": ["StatefulPartitionedCall/map/while/merge/_290", "StatefulPartitionedCall/map/while/LoopCond/_295"], "device": "/device:CPU:0", "attr": {"T": {"type": "DT_INT32"}}}, {"name": "StatefulPartitionedCall/map/while/StatefulPartitionedCall/map/Const_switch/_298", "op": "Switch", "input": ["StatefulPartitionedCall/map/while/merge/_291", "StatefulPartitionedCall/map/while/LoopCond/_295"], "device": "/device:CPU:0", "attr": {"T": {"type": "DT_INT32"}}}, {"name": "StatefulPartitionedCall/map/while/StatefulPartitionedCall/map/while/loop_counter_switch/_296", "op": "Switch", "input": ["StatefulPartitionedCall/map/while/merge/_289", "StatefulPartitionedCall/map/while/LoopCond/_295"], "device": "/device:CPU:0", "attr": {"T": {"type": "DT_INT32"}}}, {"name": "StatefulPartitionedCall/map/while/StatefulPartitionedCall/map/TensorArrayV2_1_switch/_299", "op": "Switch", "input": ["StatefulPartitionedCall/map/while/merge/_292", "StatefulPartitionedCall/map/while/LoopCond/_295"], "device": "/device:CPU:0", "attr": {"T": {"type": "DT_VARIANT"}}}, {"name": "StatefulPartitionedCall/map/while/StatefulPartitionedCall/map/TensorArrayUnstack/TensorListFromTensor_switch/_301", "op": "Switch", "input": ["StatefulPartitionedCall/map/while/merge/_294", "StatefulPartitionedCall/map/while/LoopCond/_295"], "device": "/device:CPU:0", "attr": {"T": {"type": "DT_VARIANT"}}}, {"name": "StatefulPartitionedCall/map/while/exit/_307", "op": "Exit", "input": ["StatefulPartitionedCall/map/while/StatefulPartitionedCall/map/TensorArrayV2_2_switch/_300"], "device": "/device:CPU:0", "attr": {"T": {"type": "DT_VARIANT"}}}, {"name": "StatefulPartitionedCall/map/while/loop_body_control/_302", "op": "Identity", "input": ["StatefulPartitionedCall/map/while/StatefulPartitionedCall/map/while/loop_counter_switch/_296:1"], "device": "/device:CPU:0", "attr": {"_has_manual_control_dependencies": {"b": true}, "T": {"type": "DT_INT32"}}}, {"name": "StatefulPartitionedCall/map/while/exit/_306", "op": "Exit", "input": ["StatefulPartitionedCall/map/while/StatefulPartitionedCall/map/TensorArrayV2_1_switch/_299"], "device": "/device:CPU:0", "attr": {"T": {"type": "DT_VARIANT"}}}, {"name": "StatefulPartitionedCall/map/TensorArrayV2Stack_1/TensorListStack", "op": "TensorListStack", "input": ["StatefulPartitionedCall/map/while/exit/_307", "StatefulPartitionedCall/map/TensorArrayV2Stack_1/TensorListStack/element_shape"], "device": "/device:CPU:0", "attr": {"num_elements": {"i": "1"}, "element_dtype": {"type": "DT_FLOAT"}}}, {"name": "StatefulPartitionedCall/map/while/body/_282/map/while/Cast_2", "op": "Const", "input": ["^StatefulPartitionedCall/map/while/loop_body_control/_302"], "device": "/device:CPU:0", "attr": {"value": {"tensor": {"dtype": "DT_FLOAT", "tensorShape": {"dim": [{"size": "2"}]}}}, "dtype": {"type": "DT_FLOAT"}}}, {"name": "StatefulPartitionedCall/map/while/body/_282/map/while/truediv/Cast", "op": "Const", "input": ["^StatefulPartitionedCall/map/while/loop_body_control/_302"], "device": "/device:CPU:0", "attr": {"value": {"tensor": {"dtype": "DT_DOUBLE", "tensorShape": {"dim": [{"size": "2"}]}}}, "dtype": {"type": "DT_DOUBLE"}}}, {"name": "StatefulPartitionedCall/map/while/body/_282/map/while/strided_slice/stack", "op": "Const", "input": ["^StatefulPartitionedCall/map/while/loop_body_control/_302"], "device": "/device:CPU:0", "attr": {"value": {"tensor": {"dtype": "DT_INT32", "tensorShape": {"dim": [{"size": "1"}]}}}, "dtype": {"type": "DT_INT32"}}}, {"name": "StatefulPartitionedCall/map/while/body/_282/map/while/strided_slice/stack_1", "op": "Const", "input": ["^StatefulPartitionedCall/map/while/loop_body_control/_302"], "device": "/device:CPU:0", "attr": {"value": {"tensor": {"dtype": "DT_INT32", "tensorShape": {"dim": [{"size": "1"}]}}}, "dtype": {"type": "DT_INT32"}}}, {"name": "StatefulPartitionedCall/map/while/body/_282/map/while/strided_slice/stack_2", "op": "Const", "input": ["^StatefulPartitionedCall/map/while/loop_body_control/_302"], "device": "/device:CPU:0", "attr": {"value": {"tensor": {"dtype": "DT_INT32", "tensorShape": {"dim": [{"size": "1"}]}}}, "dtype": {"type": "DT_INT32"}}}, {"name": "StatefulPartitionedCall/map/while/body/_282/map/while/Const", "op": "Const", "input": ["^StatefulPartitionedCall/map/while/loop_body_control/_302"], "device": "/device:CPU:0", "attr": {"value": {"tensor": {"dtype": "DT_FLOAT", "tensorShape": {"dim": [{"size": "2"}]}}}, "dtype": {"type": "DT_FLOAT"}}}, {"name": "StatefulPartitionedCall/map/while/body/_282/map/while/TensorArrayV2Read/TensorListGetItem/element_shape", "op": "Const", "input": ["^StatefulPartitionedCall/map/while/loop_body_control/_302"], "device": "/device:CPU:0", "attr": {"value": {"tensor": {"dtype": "DT_INT32", "tensorShape": {"dim": [{"size": "3"}]}}}, "dtype": {"type": "DT_INT32"}}}, {"name": "StatefulPartitionedCall/map/while/body/_282/map/while/normalize_image/ExpandDims_1", "op": "Const", "input": ["^StatefulPartitionedCall/map/while/loop_body_control/_302"], "device": "/device:CPU:0", "attr": {"value": {"tensor": {"dtype": "DT_FLOAT", "tensorShape": {"dim": [{"size": "1"}, {"size": "1"}, {"size": "3"}]}}}, "dtype": {"type": "DT_FLOAT"}}}, {"name": "ConstantFolding/StatefulPartitionedCall/map/while/body/_282/map/while/normalize_image/truediv_recip", "op": "Const", "input": ["^StatefulPartitionedCall/map/while/loop_body_control/_302"], "device": "/device:CPU:0", "attr": {"value": {"tensor": {"dtype": "DT_FLOAT", "tensorShape": {"dim": [{"size": "1"}, {"size": "1"}, {"size": "3"}]}}}, "dtype": {"type": "DT_FLOAT"}}}, {"name": "StatefulPartitionedCall/map/while/body/_282/map/while/resize/ExpandDims/dim", "op": "Const", "input": ["^StatefulPartitionedCall/map/while/loop_body_control/_302"], "device": "/device:CPU:0", "attr": {"value": {"tensor": {"dtype": "DT_INT32", "tensorShape": {}}}, "dtype": {"type": "DT_INT32"}}}, {"name": "StatefulPartitionedCall/map/while/body/_282/map/while/Cast/x", "op": "Const", "input": ["^StatefulPartitionedCall/map/while/loop_body_control/_302"], "device": "/device:CPU:0", "attr": {"value": {"tensor": {"dtype": "DT_INT32", "tensorShape": {"dim": [{"size": "2"}]}}}, "dtype": {"type": "DT_INT32"}}}, {"name": "StatefulPartitionedCall/map/while/next_iteration/_311", "op": "NextIteration", "input": ["StatefulPartitionedCall/map/while/StatefulPartitionedCall/map/while/maximum_iterations_switch/_297:1", "^StatefulPartitionedCall/map/while/loop_body_control/_302"], "device": "/device:CPU:0", "attr": {"T": {"type": "DT_INT32"}}}, {"name": "Func/StatefulPartitionedCall/map/while/body/_282/input/_327", "op": "Identity", "input": ["StatefulPartitionedCall/map/while/StatefulPartitionedCall/map/Const_switch/_298:1", "^StatefulPartitionedCall/map/while/loop_body_control/_302"], "device": "/device:CPU:0", "attr": {"T": {"type": "DT_INT32"}}}, {"name": "StatefulPartitionedCall/map/while/body/_282/map/while/add/y", "op": "Const", "input": ["^StatefulPartitionedCall/map/while/loop_body_control/_302"], "device": "/device:CPU:0", "attr": {"value": {"tensor": {"dtype": "DT_INT32", "tensorShape": {}}}, "dtype": {"type": "DT_INT32"}}}, {"name": "StatefulPartitionedCall/map/while/body/_282/map/while/add_1/y", "op": "Const", "input": ["^StatefulPartitionedCall/map/while/loop_body_control/_302"], "device": "/device:CPU:0", "attr": {"value": {"tensor": {"dtype": "DT_INT32", "tensorShape": {}}}, "dtype": {"type": "DT_INT32"}}}, {"name": "StatefulPartitionedCall/map/while/next_iteration/_315", "op": "NextIteration", "input": ["StatefulPartitionedCall/map/while/StatefulPartitionedCall/map/TensorArrayUnstack/TensorListFromTensor_switch/_301:1", "^StatefulPartitionedCall/map/while/loop_body_control/_302"], "device": "/device:CPU:0", "attr": {"T": {"type": "DT_VARIANT"}}}, {"name": "StatefulPartitionedCall/map/TensorArrayV2Stack/TensorListStack", "op": "TensorListStack", "input": ["StatefulPartitionedCall/map/while/exit/_306", "StatefulPartitionedCall/map/TensorArrayV2Stack/TensorListStack/element_shape"], "device": "/device:CPU:0", "attr": {"num_elements": {"i": "1"}, "element_dtype": {"type": "DT_FLOAT"}}}, {"name": "Identity", "op": "Identity", "input": ["StatefulPartitionedCall/map/TensorArrayV2Stack_1/TensorListStack"], "attr": {"T": {"type": "DT_FLOAT"}}}, {"name": "StatefulPartitionedCall/map/while/body/_282/map/while/TensorArrayV2Read/TensorListGetItem", "op": "TensorListGetItem", "input": ["StatefulPartitionedCall/map/while/StatefulPartitionedCall/map/TensorArrayUnstack/TensorListFromTensor_switch/_301:1", "Func/StatefulPartitionedCall/map/while/body/_282/input/_327", "StatefulPartitionedCall/map/while/body/_282/map/while/TensorArrayV2Read/TensorListGetItem/element_shape"], "device": "/device:CPU:0", "attr": {"element_dtype": {"type": "DT_FLOAT"}}}, {"name": "StatefulPartitionedCall/map/while/body/_282/map/while/add", "op": "AddV2", "input": ["Func/StatefulPartitionedCall/map/while/body/_282/input/_327", "StatefulPartitionedCall/map/while/body/_282/map/while/add/y"], "device": "/device:CPU:0", "attr": {"T": {"type": "DT_INT32"}}}, {"name": "StatefulPartitionedCall/map/while/body/_282/map/while/add_1", "op": "AddV2", "input": ["StatefulPartitionedCall/map/while/StatefulPartitionedCall/map/while/loop_counter_switch/_296:1", "StatefulPartitionedCall/map/while/body/_282/map/while/add_1/y"], "device": "/device:CPU:0", "attr": {"T": {"type": "DT_INT32"}}}, {"name": "StatefulPartitionedCall/mobile_net_1/conv2dbn_block_2/activation/Relu6", "op": "_FusedConv2D", "input": ["StatefulPartitionedCall/map/TensorArrayV2Stack/TensorListStack", "StatefulPartitionedCall/mobile_net_1/conv2dbn_block_2/conv2d/Conv2D/merged_input", "StatefulPartitionedCall/mobile_net_1/conv2dbn_block_2/batch_normalization/batchnorm/sub"], "device": "/device:CPU:0", "attr": {"num_host_args": {"i": "0"}, "data_format": {"s": "TkhXQw=="}, "filter_format": {"s": "SFdJTw=="}, "strides": {"list": {"i": ["1", "2", "2", "1"]}}, "num_args": {"i": "1"}, "fused_ops": {"list": {"s": ["Qmlhc0FkZA==", "UmVsdTY="]}}, "TArgs": {"list": {"type": ["DT_FLOAT"]}}, "padding": {"s": "U0FNRQ=="}, "use_cudnn_on_gpu": {"b": true}, "leakyrelu_alpha": {"f": 0.2}, "epsilon": {"f": 0.0}, "T": {"type": "DT_FLOAT"}, "explicit_paddings": {"list": {}}, "dilations": {"list": {"i": ["1", "1", "1", "1"]}}}}, {"name": "StatefulPartitionedCall/map/while/body/_282/map/while/normalize_image/sub", "op": "Sub", "input": ["StatefulPartitionedCall/map/while/body/_282/map/while/TensorArrayV2Read/TensorListGetItem", "StatefulPartitionedCall/map/while/body/_282/map/while/normalize_image/ExpandDims_1"], "device": "/device:CPU:0", "attr": {"T": {"type": "DT_FLOAT"}}}, {"name": "StatefulPartitionedCall/map/while/next_iteration/_312", "op": "NextIteration", "input": ["StatefulPartitionedCall/map/while/body/_282/map/while/add", "^StatefulPartitionedCall/map/while/loop_body_control/_302"], "device": "/device:CPU:0", "attr": {"T": {"type": "DT_INT32"}}}, {"name": "StatefulPartitionedCall/map/while/next_iteration/_310", "op": "NextIteration", "input": ["StatefulPartitionedCall/map/while/body/_282/map/while/add_1", "^StatefulPartitionedCall/map/while/loop_body_control/_302"], "device": "/device:CPU:0", "attr": {"T": {"type": "DT_INT32"}}}, {"name": "StatefulPartitionedCall/mobile_net_1/inverted_bottleneck_block_17/depthwise_conv2d/depthwise", "op": "DepthwiseConv2dNative", "input": ["StatefulPartitionedCall/mobile_net_1/conv2dbn_block_2/activation/Relu6", "StatefulPartitionedCall/mobile_net_1/inverted_bottleneck_block_17/depthwise_conv2d/depthwise/ReadVariableOp"], "attr": {"padding": {"s": "U0FNRQ=="}, "data_format": {"s": "TkhXQw=="}, "T": {"type": "DT_FLOAT"}, "explicit_paddings": {"list": {}}, "dilations": {"list": {"i": ["1", "1", "1", "1"]}}, "strides": {"list": {"i": ["1", "1", "1", "1"]}}}}, {"name": "StatefulPartitionedCall/map/while/body/_282/map/while/normalize_image/truediv", "op": "Mul", "input": ["StatefulPartitionedCall/map/while/body/_282/map/while/normalize_image/sub", "ConstantFolding/StatefulPartitionedCall/map/while/body/_282/map/while/normalize_image/truediv_recip"], "device": "/device:CPU:0", "attr": {"T": {"type": "DT_FLOAT"}}}, {"name": "StatefulPartitionedCall/mobile_net_1/inverted_bottleneck_block_17/batch_normalization/batchnorm/mul_1", "op": "Mul", "input": ["StatefulPartitionedCall/mobile_net_1/inverted_bottleneck_block_17/depthwise_conv2d/depthwise", "StatefulPartitionedCall/mobile_net_1/inverted_bottleneck_block_17/batch_normalization/batchnorm/mul"], "attr": {"T": {"type": "DT_FLOAT"}}}, {"name": "StatefulPartitionedCall/map/while/body/_282/map/while/Shape", "op": "Shape", "input": ["StatefulPartitionedCall/map/while/body/_282/map/while/normalize_image/truediv"], "device": "/device:CPU:0", "attr": {"T": {"type": "DT_FLOAT"}, "out_type": {"type": "DT_INT32"}}, "experimentalType": {"typeId": "TFT_PRODUCT", "args": [{"typeId": "TFT_SHAPE_TENSOR", "args": [{"typeId": "TFT_INT32"}]}]}}, {"name": "StatefulPartitionedCall/map/while/body/_282/map/while/resize/ExpandDims", "op": "ExpandDims", "input": ["StatefulPartitionedCall/map/while/body/_282/map/while/normalize_image/truediv", "StatefulPartitionedCall/map/while/body/_282/map/while/resize/ExpandDims/dim"], "device": "/device:CPU:0", "attr": {"Tdim": {"type": "DT_INT32"}, "T": {"type": "DT_FLOAT"}}}, {"name": "StatefulPartitionedCall/mobile_net_1/inverted_bottleneck_block_17/batch_normalization/batchnorm/add_1", "op": "AddV2", "input": ["StatefulPartitionedCall/mobile_net_1/inverted_bottleneck_block_17/batch_normalization/batchnorm/mul_1", "StatefulPartitionedCall/mobile_net_1/inverted_bottleneck_block_17/batch_normalization/batchnorm/sub"], "attr": {"T": {"type": "DT_FLOAT"}}}, {"name": "StatefulPartitionedCall/map/while/body/_282/map/while/strided_slice", "op": "StridedSlice", "input": ["StatefulPartitionedCall/map/while/body/_282/map/while/Shape", "StatefulPartitionedCall/map/while/body/_282/map/while/strided_slice/stack", "StatefulPartitionedCall/map/while/body/_282/map/while/strided_slice/stack_1", "StatefulPartitionedCall/map/while/body/_282/map/while/strided_slice/stack_2"], "device": "/device:CPU:0", "attr": {"shrink_axis_mask": {"i": "0"}, "Index": {"type": "DT_INT32"}, "new_axis_mask": {"i": "0"}, "begin_mask": {"i": "0"}, "T": {"type": "DT_INT32"}, "end_mask": {"i": "0"}, "ellipsis_mask": {"i": "0"}}}, {"name": "StatefulPartitionedCall/map/while/body/_282/map/while/resize/ResizeBilinear", "op": "ResizeBilinear", "input": ["StatefulPartitionedCall/map/while/body/_282/map/while/resize/ExpandDims", "StatefulPartitionedCall/map/while/body/_282/map/while/Cast/x"], "device": "/device:CPU:0", "attr": {"T": {"type": "DT_FLOAT"}, "align_corners": {"b": false}, "half_pixel_centers": {"b": true}}}, {"name": "StatefulPartitionedCall/mobile_net_1/inverted_bottleneck_block_17/activation/Relu6", "op": "Relu6", "input": ["StatefulPartitionedCall/mobile_net_1/inverted_bottleneck_block_17/batch_normalization/batchnorm/add_1"], "attr": {"T": {"type": "DT_FLOAT"}}}, {"name": "StatefulPartitionedCall/map/while/body/_282/map/while/Cast_1", "op": "Cast", "input": ["StatefulPartitionedCall/map/while/body/_282/map/while/strided_slice"], "device": "/device:CPU:0", "attr": {"SrcT": {"type": "DT_INT32"}, "DstT": {"type": "DT_FLOAT"}, "Truncate": {"b": false}}}, {"name": "StatefulPartitionedCall/map/while/body/_282/map/while/truediv/Cast_1", "op": "Cast", "input": ["StatefulPartitionedCall/map/while/body/_282/map/while/strided_slice"], "device": "/device:CPU:0", "attr": {"SrcT": {"type": "DT_INT32"}, "DstT": {"type": "DT_DOUBLE"}, "Truncate": {"b": false}}}, {"name": "StatefulPartitionedCall/map/while/body/_282/map/while/resize/Squeeze", "op": "Squeeze", "input": ["StatefulPartitionedCall/map/while/body/_282/map/while/resize/ResizeBilinear"], "device": "/device:CPU:0", "attr": {"T": {"type": "DT_FLOAT"}, "squeeze_dims": {"list": {"i": ["0"]}}}}, {"name": "StatefulPartitionedCall/mobile_net_1/inverted_bottleneck_block_17/batch_normalization_1/batchnorm/add_1", "op": "_FusedConv2D", "input": ["StatefulPartitionedCall/mobile_net_1/inverted_bottleneck_block_17/activation/Relu6", "StatefulPartitionedCall/mobile_net_1/inverted_bottleneck_block_17/conv2d/Conv2D/merged_input", "StatefulPartitionedCall/mobile_net_1/inverted_bottleneck_block_17/batch_normalization_1/batchnorm/sub"], "device": "/device:CPU:0", "attr": {"num_host_args": {"i": "0"}, "data_format": {"s": "TkhXQw=="}, "filter_format": {"s": "SFdJTw=="}, "fused_ops": {"list": {"s": ["Qmlhc0FkZA=="]}}, "num_args": {"i": "1"}, "strides": {"list": {"i": ["1", "1", "1", "1"]}}, "TArgs": {"list": {"type": ["DT_FLOAT"]}}, "padding": {"s": "U0FNRQ=="}, "use_cudnn_on_gpu": {"b": true}, "leakyrelu_alpha": {"f": 0.2}, "epsilon": {"f": 0.0}, "T": {"type": "DT_FLOAT"}, "explicit_paddings": {"list": {}}, "dilations": {"list": {"i": ["1", "1", "1", "1"]}}}}, {"name": "StatefulPartitionedCall/map/while/body/_282/map/while/truediv", "op": "RealDiv", "input": ["StatefulPartitionedCall/map/while/body/_282/map/while/truediv/Cast", "StatefulPartitionedCall/map/while/body/_282/map/while/truediv/Cast_1"], "device": "/device:CPU:0", "attr": {"T": {"type": "DT_DOUBLE"}}}, {"name": "StatefulPartitionedCall/map/while/body/_282/map/while/TensorArrayV2Write/TensorListSetItem", "op": "TensorListSetItem", "input": ["StatefulPartitionedCall/map/while/StatefulPartitionedCall/map/TensorArrayV2_1_switch/_299:1", "Func/StatefulPartitionedCall/map/while/body/_282/input/_327", "StatefulPartitionedCall/map/while/body/_282/map/while/resize/Squeeze"], "device": "/device:CPU:0", "attr": {"element_dtype": {"type": "DT_FLOAT"}, "resize_if_index_out_of_bounds": {"b": false}}, "experimentalType": {"typeId": "TFT_PRODUCT", "args": [{"typeId": "TFT_ARRAY", "args": [{"typeId": "TFT_TENSOR", "args": [{"typeId": "TFT_FLOAT"}]}]}]}}, {"name": "StatefulPartitionedCall/mobile_net_1/inverted_bottleneck_block_18/activation/Relu6", "op": "_FusedConv2D", "input": ["StatefulPartitionedCall/mobile_net_1/inverted_bottleneck_block_17/batch_normalization_1/batchnorm/add_1", "StatefulPartitionedCall/mobile_net_1/inverted_bottleneck_block_18/conv2d/Conv2D/merged_input", "StatefulPartitionedCall/mobile_net_1/inverted_bottleneck_block_18/batch_normalization/batchnorm/sub"], "device": "/device:CPU:0", "attr": {"num_host_args": {"i": "0"}, "data_format": {"s": "TkhXQw=="}, "filter_format": {"s": "SFdJTw=="}, "fused_ops": {"list": {"s": ["Qmlhc0FkZA==", "UmVsdTY="]}}, "num_args": {"i": "1"}, "strides": {"list": {"i": ["1", "1", "1", "1"]}}, "TArgs": {"list": {"type": ["DT_FLOAT"]}}, "padding": {"s": "U0FNRQ=="}, "use_cudnn_on_gpu": {"b": true}, "leakyrelu_alpha": {"f": 0.2}, "epsilon": {"f": 0.0}, "T": {"type": "DT_FLOAT"}, "explicit_paddings": {"list": {}}, "dilations": {"list": {"i": ["1", "1", "1", "1"]}}}}, {"name": "StatefulPartitionedCall/map/while/body/_282/map/while/Cast_3", "op": "Cast", "input": ["StatefulPartitionedCall/map/while/body/_282/map/while/truediv"], "device": "/device:CPU:0", "attr": {"SrcT": {"type": "DT_DOUBLE"}, "DstT": {"type": "DT_FLOAT"}, "Truncate": {"b": false}}}, {"name": "StatefulPartitionedCall/map/while/next_iteration/_313", "op": "NextIteration", "input": ["StatefulPartitionedCall/map/while/body/_282/map/while/TensorArrayV2Write/TensorListSetItem", "^StatefulPartitionedCall/map/while/loop_body_control/_302"], "device": "/device:CPU:0", "attr": {"T": {"type": "DT_VARIANT"}}}, {"name": "StatefulPartitionedCall/mobile_net_1/inverted_bottleneck_block_18/depthwise_conv2d/depthwise", "op": "DepthwiseConv2dNative", "input": ["StatefulPartitionedCall/mobile_net_1/inverted_bottleneck_block_18/activation/Relu6", "StatefulPartitionedCall/mobile_net_1/inverted_bottleneck_block_18/depthwise_conv2d/depthwise/ReadVariableOp"], "attr": {"padding": {"s": "U0FNRQ=="}, "data_format": {"s": "TkhXQw=="}, "T": {"type": "DT_FLOAT"}, "explicit_paddings": {"list": {}}, "dilations": {"list": {"i": ["1", "1", "1", "1"]}}, "strides": {"list": {"i": ["1", "2", "2", "1"]}}}}, {"name": "StatefulPartitionedCall/map/while/body/_282/map/while/stack", "op": "Pack", "input": ["StatefulPartitionedCall/map/while/body/_282/map/while/Cast_1", "StatefulPartitionedCall/map/while/body/_282/map/while/Cast_2", "StatefulPartitionedCall/map/while/body/_282/map/while/Cast_3", "StatefulPartitionedCall/map/while/body/_282/map/while/Const"], "device": "/device:CPU:0", "attr": {"N": {"i": "4"}, "axis": {"i": "0"}, "T": {"type": "DT_FLOAT"}}}, {"name": "StatefulPartitionedCall/mobile_net_1/inverted_bottleneck_block_18/batch_normalization_1/batchnorm/mul_1", "op": "Mul", "input": ["StatefulPartitionedCall/mobile_net_1/inverted_bottleneck_block_18/depthwise_conv2d/depthwise", "StatefulPartitionedCall/mobile_net_1/inverted_bottleneck_block_18/batch_normalization_1/batchnorm/mul"], "attr": {"T": {"type": "DT_FLOAT"}}}, {"name": "StatefulPartitionedCall/map/while/body/_282/map/while/TensorArrayV2Write_1/TensorListSetItem", "op": "TensorListSetItem", "input": ["StatefulPartitionedCall/map/while/StatefulPartitionedCall/map/TensorArrayV2_2_switch/_300:1", "Func/StatefulPartitionedCall/map/while/body/_282/input/_327", "StatefulPartitionedCall/map/while/body/_282/map/while/stack"], "device": "/device:CPU:0", "attr": {"element_dtype": {"type": "DT_FLOAT"}, "resize_if_index_out_of_bounds": {"b": false}}, "experimentalType": {"typeId": "TFT_PRODUCT", "args": [{"typeId": "TFT_ARRAY", "args": [{"typeId": "TFT_TENSOR", "args": [{"typeId": "TFT_FLOAT"}]}]}]}}, {"name": "StatefulPartitionedCall/mobile_net_1/inverted_bottleneck_block_18/batch_normalization_1/batchnorm/add_1", "op": "AddV2", "input": ["StatefulPartitionedCall/mobile_net_1/inverted_bottleneck_block_18/batch_normalization_1/batchnorm/mul_1", "StatefulPartitionedCall/mobile_net_1/inverted_bottleneck_block_18/batch_normalization_1/batchnorm/sub"], "attr": {"T": {"type": "DT_FLOAT"}}}, {"name": "StatefulPartitionedCall/map/while/next_iteration/_314", "op": "NextIteration", "input": ["StatefulPartitionedCall/map/while/body/_282/map/while/TensorArrayV2Write_1/TensorListSetItem", "^StatefulPartitionedCall/map/while/loop_body_control/_302"], "device": "/device:CPU:0", "attr": {"T": {"type": "DT_VARIANT"}}}, {"name": "StatefulPartitionedCall/mobile_net_1/inverted_bottleneck_block_18/activation_1/Relu6", "op": "Relu6", "input": ["StatefulPartitionedCall/mobile_net_1/inverted_bottleneck_block_18/batch_normalization_1/batchnorm/add_1"], "attr": {"T": {"type": "DT_FLOAT"}}}, {"name": "StatefulPartitionedCall/mobile_net_1/inverted_bottleneck_block_18/batch_normalization_2/batchnorm/add_1", "op": "_FusedConv2D", "input": ["StatefulPartitionedCall/mobile_net_1/inverted_bottleneck_block_18/activation_1/Relu6", "StatefulPartitionedCall/mobile_net_1/inverted_bottleneck_block_18/conv2d_1/Conv2D/merged_input", "StatefulPartitionedCall/mobile_net_1/inverted_bottleneck_block_18/batch_normalization_2/batchnorm/sub"], "device": "/device:CPU:0", "attr": {"num_host_args": {"i": "0"}, "data_format": {"s": "TkhXQw=="}, "filter_format": {"s": "SFdJTw=="}, "fused_ops": {"list": {"s": ["Qmlhc0FkZA=="]}}, "num_args": {"i": "1"}, "strides": {"list": {"i": ["1", "1", "1", "1"]}}, "TArgs": {"list": {"type": ["DT_FLOAT"]}}, "padding": {"s": "U0FNRQ=="}, "use_cudnn_on_gpu": {"b": true}, "leakyrelu_alpha": {"f": 0.2}, "epsilon": {"f": 0.0}, "T": {"type": "DT_FLOAT"}, "explicit_paddings": {"list": {}}, "dilations": {"list": {"i": ["1", "1", "1", "1"]}}}}, {"name": "StatefulPartitionedCall/mobile_net_1/inverted_bottleneck_block_19/activation/Relu6", "op": "_FusedConv2D", "input": ["StatefulPartitionedCall/mobile_net_1/inverted_bottleneck_block_18/batch_normalization_2/batchnorm/add_1", "StatefulPartitionedCall/mobile_net_1/inverted_bottleneck_block_19/conv2d/Conv2D/merged_input", "StatefulPartitionedCall/mobile_net_1/inverted_bottleneck_block_19/batch_normalization/batchnorm/sub"], "device": "/device:CPU:0", "attr": {"num_host_args": {"i": "0"}, "data_format": {"s": "TkhXQw=="}, "filter_format": {"s": "SFdJTw=="}, "strides": {"list": {"i": ["1", "1", "1", "1"]}}, "num_args": {"i": "1"}, "fused_ops": {"list": {"s": ["Qmlhc0FkZA==", "UmVsdTY="]}}, "TArgs": {"list": {"type": ["DT_FLOAT"]}}, "padding": {"s": "U0FNRQ=="}, "use_cudnn_on_gpu": {"b": true}, "leakyrelu_alpha": {"f": 0.2}, "epsilon": {"f": 0.0}, "T": {"type": "DT_FLOAT"}, "explicit_paddings": {"list": {}}, "dilations": {"list": {"i": ["1", "1", "1", "1"]}}}}, {"name": "StatefulPartitionedCall/mobile_net_1/inverted_bottleneck_block_19/depthwise_conv2d/depthwise", "op": "DepthwiseConv2dNative", "input": ["StatefulPartitionedCall/mobile_net_1/inverted_bottleneck_block_19/activation/Relu6", "StatefulPartitionedCall/mobile_net_1/inverted_bottleneck_block_19/depthwise_conv2d/depthwise/ReadVariableOp"], "attr": {"padding": {"s": "U0FNRQ=="}, "data_format": {"s": "TkhXQw=="}, "T": {"type": "DT_FLOAT"}, "explicit_paddings": {"list": {}}, "dilations": {"list": {"i": ["1", "1", "1", "1"]}}, "strides": {"list": {"i": ["1", "1", "1", "1"]}}}}, {"name": "StatefulPartitionedCall/mobile_net_1/inverted_bottleneck_block_19/batch_normalization_1/batchnorm/mul_1", "op": "Mul", "input": ["StatefulPartitionedCall/mobile_net_1/inverted_bottleneck_block_19/depthwise_conv2d/depthwise", "StatefulPartitionedCall/mobile_net_1/inverted_bottleneck_block_19/batch_normalization_1/batchnorm/mul"], "attr": {"T": {"type": "DT_FLOAT"}}}, {"name": "StatefulPartitionedCall/mobile_net_1/inverted_bottleneck_block_19/batch_normalization_1/batchnorm/add_1", "op": "AddV2", "input": ["StatefulPartitionedCall/mobile_net_1/inverted_bottleneck_block_19/batch_normalization_1/batchnorm/mul_1", "StatefulPartitionedCall/mobile_net_1/inverted_bottleneck_block_19/batch_normalization_1/batchnorm/sub"], "attr": {"T": {"type": "DT_FLOAT"}}}, {"name": "StatefulPartitionedCall/mobile_net_1/inverted_bottleneck_block_19/activation_1/Relu6", "op": "Relu6", "input": ["StatefulPartitionedCall/mobile_net_1/inverted_bottleneck_block_19/batch_normalization_1/batchnorm/add_1"], "attr": {"T": {"type": "DT_FLOAT"}}}, {"name": "StatefulPartitionedCall/mobile_net_1/inverted_bottleneck_block_19/batch_normalization_2/batchnorm/mul_1", "op": "Conv2D", "input": ["StatefulPartitionedCall/mobile_net_1/inverted_bottleneck_block_19/activation_1/Relu6", "StatefulPartitionedCall/mobile_net_1/inverted_bottleneck_block_19/conv2d_1/Conv2D/merged_input"], "device": "/device:CPU:0", "attr": {"padding": {"s": "U0FNRQ=="}, "data_format": {"s": "TkhXQw=="}, "use_cudnn_on_gpu": {"b": true}, "strides": {"list": {"i": ["1", "1", "1", "1"]}}, "T": {"type": "DT_FLOAT"}, "explicit_paddings": {"list": {}}, "dilations": {"list": {"i": ["1", "1", "1", "1"]}}}}, {"name": "StatefulPartitionedCall/mobile_net_1/inverted_bottleneck_block_19/add/ArithmeticOptimizer/AddOpsRewrite_Leaf_1_add", "op": "AddN", "input": ["StatefulPartitionedCall/mobile_net_1/inverted_bottleneck_block_19/batch_normalization_2/batchnorm/mul_1", "StatefulPartitionedCall/mobile_net_1/inverted_bottleneck_block_18/batch_normalization_2/batchnorm/add_1"], "attr": {"N": {"i": "2"}, "T": {"type": "DT_FLOAT"}, "_grappler_ArithmeticOptimizer_AddOpsRewriteStage": {"b": true}}}, {"name": "StatefulPartitionedCall/mobile_net_1/inverted_bottleneck_block_19/add/ArithmeticOptimizer/AddOpsRewrite_add", "op": "AddV2", "input": ["StatefulPartitionedCall/mobile_net_1/inverted_bottleneck_block_19/batch_normalization_2/batchnorm/sub", "StatefulPartitionedCall/mobile_net_1/inverted_bottleneck_block_19/add/ArithmeticOptimizer/AddOpsRewrite_Leaf_1_add"], "attr": {"T": {"type": "DT_FLOAT"}, "_grappler_ArithmeticOptimizer_AddOpsRewriteStage": {"b": true}}}, {"name": "StatefulPartitionedCall/mobile_net_1/inverted_bottleneck_block_20/activation/Relu6", "op": "_FusedConv2D", "input": ["StatefulPartitionedCall/mobile_net_1/inverted_bottleneck_block_19/add/ArithmeticOptimizer/AddOpsRewrite_add", "StatefulPartitionedCall/mobile_net_1/inverted_bottleneck_block_20/conv2d/Conv2D/merged_input", "StatefulPartitionedCall/mobile_net_1/inverted_bottleneck_block_20/batch_normalization/batchnorm/sub"], "device": "/device:CPU:0", "attr": {"num_host_args": {"i": "0"}, "data_format": {"s": "TkhXQw=="}, "filter_format": {"s": "SFdJTw=="}, "fused_ops": {"list": {"s": ["Qmlhc0FkZA==", "UmVsdTY="]}}, "num_args": {"i": "1"}, "strides": {"list": {"i": ["1", "1", "1", "1"]}}, "TArgs": {"list": {"type": ["DT_FLOAT"]}}, "padding": {"s": "U0FNRQ=="}, "use_cudnn_on_gpu": {"b": true}, "leakyrelu_alpha": {"f": 0.2}, "epsilon": {"f": 0.0}, "T": {"type": "DT_FLOAT"}, "explicit_paddings": {"list": {}}, "dilations": {"list": {"i": ["1", "1", "1", "1"]}}}}, {"name": "StatefulPartitionedCall/mobile_net_1/inverted_bottleneck_block_20/depthwise_conv2d/depthwise", "op": "DepthwiseConv2dNative", "input": ["StatefulPartitionedCall/mobile_net_1/inverted_bottleneck_block_20/activation/Relu6", "StatefulPartitionedCall/mobile_net_1/inverted_bottleneck_block_20/depthwise_conv2d/depthwise/ReadVariableOp"], "attr": {"padding": {"s": "U0FNRQ=="}, "data_format": {"s": "TkhXQw=="}, "T": {"type": "DT_FLOAT"}, "explicit_paddings": {"list": {}}, "dilations": {"list": {"i": ["1", "1", "1", "1"]}}, "strides": {"list": {"i": ["1", "2", "2", "1"]}}}}, {"name": "StatefulPartitionedCall/mobile_net_1/inverted_bottleneck_block_20/batch_normalization_1/batchnorm/mul_1", "op": "Mul", "input": ["StatefulPartitionedCall/mobile_net_1/inverted_bottleneck_block_20/depthwise_conv2d/depthwise", "StatefulPartitionedCall/mobile_net_1/inverted_bottleneck_block_20/batch_normalization_1/batchnorm/mul"], "attr": {"T": {"type": "DT_FLOAT"}}}, {"name": "StatefulPartitionedCall/mobile_net_1/inverted_bottleneck_block_20/batch_normalization_1/batchnorm/add_1", "op": "AddV2", "input": ["StatefulPartitionedCall/mobile_net_1/inverted_bottleneck_block_20/batch_normalization_1/batchnorm/mul_1", "StatefulPartitionedCall/mobile_net_1/inverted_bottleneck_block_20/batch_normalization_1/batchnorm/sub"], "attr": {"T": {"type": "DT_FLOAT"}}}, {"name": "StatefulPartitionedCall/mobile_net_1/inverted_bottleneck_block_20/activation_1/Relu6", "op": "Relu6", "input": ["StatefulPartitionedCall/mobile_net_1/inverted_bottleneck_block_20/batch_normalization_1/batchnorm/add_1"], "attr": {"T": {"type": "DT_FLOAT"}}}, {"name": "StatefulPartitionedCall/mobile_net_1/inverted_bottleneck_block_20/batch_normalization_2/batchnorm/add_1", "op": "_FusedConv2D", "input": ["StatefulPartitionedCall/mobile_net_1/inverted_bottleneck_block_20/activation_1/Relu6", "StatefulPartitionedCall/mobile_net_1/inverted_bottleneck_block_20/conv2d_1/Conv2D/merged_input", "StatefulPartitionedCall/mobile_net_1/inverted_bottleneck_block_20/batch_normalization_2/batchnorm/sub"], "device": "/device:CPU:0", "attr": {"num_host_args": {"i": "0"}, "data_format": {"s": "TkhXQw=="}, "filter_format": {"s": "SFdJTw=="}, "strides": {"list": {"i": ["1", "1", "1", "1"]}}, "num_args": {"i": "1"}, "fused_ops": {"list": {"s": ["Qmlhc0FkZA=="]}}, "TArgs": {"list": {"type": ["DT_FLOAT"]}}, "padding": {"s": "U0FNRQ=="}, "use_cudnn_on_gpu": {"b": true}, "leakyrelu_alpha": {"f": 0.2}, "epsilon": {"f": 0.0}, "T": {"type": "DT_FLOAT"}, "explicit_paddings": {"list": {}}, "dilations": {"list": {"i": ["1", "1", "1", "1"]}}}}, {"name": "StatefulPartitionedCall/mobile_net_1/inverted_bottleneck_block_21/activation/Relu6", "op": "_FusedConv2D", "input": ["StatefulPartitionedCall/mobile_net_1/inverted_bottleneck_block_20/batch_normalization_2/batchnorm/add_1", "StatefulPartitionedCall/mobile_net_1/inverted_bottleneck_block_21/conv2d/Conv2D/merged_input", "StatefulPartitionedCall/mobile_net_1/inverted_bottleneck_block_21/batch_normalization/batchnorm/sub"], "device": "/device:CPU:0", "attr": {"num_host_args": {"i": "0"}, "data_format": {"s": "TkhXQw=="}, "filter_format": {"s": "SFdJTw=="}, "fused_ops": {"list": {"s": ["Qmlhc0FkZA==", "UmVsdTY="]}}, "num_args": {"i": "1"}, "strides": {"list": {"i": ["1", "1", "1", "1"]}}, "TArgs": {"list": {"type": ["DT_FLOAT"]}}, "padding": {"s": "U0FNRQ=="}, "use_cudnn_on_gpu": {"b": true}, "leakyrelu_alpha": {"f": 0.2}, "epsilon": {"f": 0.0}, "T": {"type": "DT_FLOAT"}, "explicit_paddings": {"list": {}}, "dilations": {"list": {"i": ["1", "1", "1", "1"]}}}}, {"name": "StatefulPartitionedCall/mobile_net_1/inverted_bottleneck_block_21/depthwise_conv2d/depthwise", "op": "DepthwiseConv2dNative", "input": ["StatefulPartitionedCall/mobile_net_1/inverted_bottleneck_block_21/activation/Relu6", "StatefulPartitionedCall/mobile_net_1/inverted_bottleneck_block_21/depthwise_conv2d/depthwise/ReadVariableOp"], "attr": {"padding": {"s": "U0FNRQ=="}, "data_format": {"s": "TkhXQw=="}, "T": {"type": "DT_FLOAT"}, "explicit_paddings": {"list": {}}, "dilations": {"list": {"i": ["1", "1", "1", "1"]}}, "strides": {"list": {"i": ["1", "1", "1", "1"]}}}}, {"name": "StatefulPartitionedCall/mobile_net_1/inverted_bottleneck_block_21/batch_normalization_1/batchnorm/mul_1", "op": "Mul", "input": ["StatefulPartitionedCall/mobile_net_1/inverted_bottleneck_block_21/depthwise_conv2d/depthwise", "StatefulPartitionedCall/mobile_net_1/inverted_bottleneck_block_21/batch_normalization_1/batchnorm/mul"], "attr": {"T": {"type": "DT_FLOAT"}}}, {"name": "StatefulPartitionedCall/mobile_net_1/inverted_bottleneck_block_21/batch_normalization_1/batchnorm/add_1", "op": "AddV2", "input": ["StatefulPartitionedCall/mobile_net_1/inverted_bottleneck_block_21/batch_normalization_1/batchnorm/mul_1", "StatefulPartitionedCall/mobile_net_1/inverted_bottleneck_block_21/batch_normalization_1/batchnorm/sub"], "attr": {"T": {"type": "DT_FLOAT"}}}, {"name": "StatefulPartitionedCall/mobile_net_1/inverted_bottleneck_block_21/activation_1/Relu6", "op": "Relu6", "input": ["StatefulPartitionedCall/mobile_net_1/inverted_bottleneck_block_21/batch_normalization_1/batchnorm/add_1"], "attr": {"T": {"type": "DT_FLOAT"}}}, {"name": "StatefulPartitionedCall/mobile_net_1/inverted_bottleneck_block_21/batch_normalization_2/batchnorm/mul_1", "op": "Conv2D", "input": ["StatefulPartitionedCall/mobile_net_1/inverted_bottleneck_block_21/activation_1/Relu6", "StatefulPartitionedCall/mobile_net_1/inverted_bottleneck_block_21/conv2d_1/Conv2D/merged_input"], "device": "/device:CPU:0", "attr": {"padding": {"s": "U0FNRQ=="}, "data_format": {"s": "TkhXQw=="}, "strides": {"list": {"i": ["1", "1", "1", "1"]}}, "use_cudnn_on_gpu": {"b": true}, "T": {"type": "DT_FLOAT"}, "explicit_paddings": {"list": {}}, "dilations": {"list": {"i": ["1", "1", "1", "1"]}}}}, {"name": "StatefulPartitionedCall/mobile_net_1/inverted_bottleneck_block_21/add/ArithmeticOptimizer/AddOpsRewrite_Leaf_1_add", "op": "AddN", "input": ["StatefulPartitionedCall/mobile_net_1/inverted_bottleneck_block_21/batch_normalization_2/batchnorm/mul_1", "StatefulPartitionedCall/mobile_net_1/inverted_bottleneck_block_20/batch_normalization_2/batchnorm/add_1"], "attr": {"N": {"i": "2"}, "T": {"type": "DT_FLOAT"}, "_grappler_ArithmeticOptimizer_AddOpsRewriteStage": {"b": true}}}, {"name": "StatefulPartitionedCall/mobile_net_1/inverted_bottleneck_block_21/add/ArithmeticOptimizer/AddOpsRewrite_add", "op": "AddV2", "input": ["StatefulPartitionedCall/mobile_net_1/inverted_bottleneck_block_21/batch_normalization_2/batchnorm/sub", "StatefulPartitionedCall/mobile_net_1/inverted_bottleneck_block_21/add/ArithmeticOptimizer/AddOpsRewrite_Leaf_1_add"], "attr": {"T": {"type": "DT_FLOAT"}, "_grappler_ArithmeticOptimizer_AddOpsRewriteStage": {"b": true}}}, {"name": "StatefulPartitionedCall/mobile_net_1/inverted_bottleneck_block_22/activation/Relu6", "op": "_FusedConv2D", "input": ["StatefulPartitionedCall/mobile_net_1/inverted_bottleneck_block_21/add/ArithmeticOptimizer/AddOpsRewrite_add", "StatefulPartitionedCall/mobile_net_1/inverted_bottleneck_block_22/conv2d/Conv2D/merged_input", "StatefulPartitionedCall/mobile_net_1/inverted_bottleneck_block_22/batch_normalization/batchnorm/sub"], "device": "/device:CPU:0", "attr": {"num_host_args": {"i": "0"}, "data_format": {"s": "TkhXQw=="}, "filter_format": {"s": "SFdJTw=="}, "strides": {"list": {"i": ["1", "1", "1", "1"]}}, "num_args": {"i": "1"}, "fused_ops": {"list": {"s": ["Qmlhc0FkZA==", "UmVsdTY="]}}, "TArgs": {"list": {"type": ["DT_FLOAT"]}}, "padding": {"s": "U0FNRQ=="}, "use_cudnn_on_gpu": {"b": true}, "leakyrelu_alpha": {"f": 0.2}, "epsilon": {"f": 0.0}, "T": {"type": "DT_FLOAT"}, "explicit_paddings": {"list": {}}, "dilations": {"list": {"i": ["1", "1", "1", "1"]}}}}, {"name": "StatefulPartitionedCall/mobile_net_1/inverted_bottleneck_block_22/depthwise_conv2d/depthwise", "op": "DepthwiseConv2dNative", "input": ["StatefulPartitionedCall/mobile_net_1/inverted_bottleneck_block_22/activation/Relu6", "StatefulPartitionedCall/mobile_net_1/inverted_bottleneck_block_22/depthwise_conv2d/depthwise/ReadVariableOp"], "attr": {"padding": {"s": "U0FNRQ=="}, "data_format": {"s": "TkhXQw=="}, "T": {"type": "DT_FLOAT"}, "explicit_paddings": {"list": {}}, "dilations": {"list": {"i": ["1", "1", "1", "1"]}}, "strides": {"list": {"i": ["1", "1", "1", "1"]}}}}, {"name": "StatefulPartitionedCall/mobile_net_1/inverted_bottleneck_block_22/batch_normalization_1/batchnorm/mul_1", "op": "Mul", "input": ["StatefulPartitionedCall/mobile_net_1/inverted_bottleneck_block_22/depthwise_conv2d/depthwise", "StatefulPartitionedCall/mobile_net_1/inverted_bottleneck_block_22/batch_normalization_1/batchnorm/mul"], "attr": {"T": {"type": "DT_FLOAT"}}}, {"name": "StatefulPartitionedCall/mobile_net_1/inverted_bottleneck_block_22/batch_normalization_1/batchnorm/add_1", "op": "AddV2", "input": ["StatefulPartitionedCall/mobile_net_1/inverted_bottleneck_block_22/batch_normalization_1/batchnorm/mul_1", "StatefulPartitionedCall/mobile_net_1/inverted_bottleneck_block_22/batch_normalization_1/batchnorm/sub"], "attr": {"T": {"type": "DT_FLOAT"}}}, {"name": "StatefulPartitionedCall/mobile_net_1/inverted_bottleneck_block_22/activation_1/Relu6", "op": "Relu6", "input": ["StatefulPartitionedCall/mobile_net_1/inverted_bottleneck_block_22/batch_normalization_1/batchnorm/add_1"], "attr": {"T": {"type": "DT_FLOAT"}}}, {"name": "StatefulPartitionedCall/mobile_net_1/inverted_bottleneck_block_22/batch_normalization_2/batchnorm/mul_1", "op": "Conv2D", "input": ["StatefulPartitionedCall/mobile_net_1/inverted_bottleneck_block_22/activation_1/Relu6", "StatefulPartitionedCall/mobile_net_1/inverted_bottleneck_block_22/conv2d_1/Conv2D/merged_input"], "device": "/device:CPU:0", "attr": {"padding": {"s": "U0FNRQ=="}, "data_format": {"s": "TkhXQw=="}, "use_cudnn_on_gpu": {"b": true}, "strides": {"list": {"i": ["1", "1", "1", "1"]}}, "T": {"type": "DT_FLOAT"}, "explicit_paddings": {"list": {}}, "dilations": {"list": {"i": ["1", "1", "1", "1"]}}}}, {"name": "StatefulPartitionedCall/mobile_net_1/inverted_bottleneck_block_22/add/ArithmeticOptimizer/AddOpsRewrite_Leaf_1_add", "op": "AddN", "input": ["StatefulPartitionedCall/mobile_net_1/inverted_bottleneck_block_22/batch_normalization_2/batchnorm/mul_1", "StatefulPartitionedCall/mobile_net_1/inverted_bottleneck_block_21/add/ArithmeticOptimizer/AddOpsRewrite_add"], "attr": {"N": {"i": "2"}, "T": {"type": "DT_FLOAT"}, "_grappler_ArithmeticOptimizer_AddOpsRewriteStage": {"b": true}}}, {"name": "StatefulPartitionedCall/mobile_net_1/inverted_bottleneck_block_22/add/ArithmeticOptimizer/AddOpsRewrite_add", "op": "AddV2", "input": ["StatefulPartitionedCall/mobile_net_1/inverted_bottleneck_block_22/batch_normalization_2/batchnorm/sub", "StatefulPartitionedCall/mobile_net_1/inverted_bottleneck_block_22/add/ArithmeticOptimizer/AddOpsRewrite_Leaf_1_add"], "attr": {"T": {"type": "DT_FLOAT"}, "_grappler_ArithmeticOptimizer_AddOpsRewriteStage": {"b": true}}}, {"name": "StatefulPartitionedCall/mobile_net_1/inverted_bottleneck_block_23/activation/Relu6", "op": "_FusedConv2D", "input": ["StatefulPartitionedCall/mobile_net_1/inverted_bottleneck_block_22/add/ArithmeticOptimizer/AddOpsRewrite_add", "StatefulPartitionedCall/mobile_net_1/inverted_bottleneck_block_23/conv2d/Conv2D/merged_input", "StatefulPartitionedCall/mobile_net_1/inverted_bottleneck_block_23/batch_normalization/batchnorm/sub"], "device": "/device:CPU:0", "attr": {"num_host_args": {"i": "0"}, "data_format": {"s": "TkhXQw=="}, "filter_format": {"s": "SFdJTw=="}, "strides": {"list": {"i": ["1", "1", "1", "1"]}}, "num_args": {"i": "1"}, "fused_ops": {"list": {"s": ["Qmlhc0FkZA==", "UmVsdTY="]}}, "TArgs": {"list": {"type": ["DT_FLOAT"]}}, "padding": {"s": "U0FNRQ=="}, "use_cudnn_on_gpu": {"b": true}, "leakyrelu_alpha": {"f": 0.2}, "epsilon": {"f": 0.0}, "T": {"type": "DT_FLOAT"}, "explicit_paddings": {"list": {}}, "dilations": {"list": {"i": ["1", "1", "1", "1"]}}}}, {"name": "StatefulPartitionedCall/mobile_net_1/inverted_bottleneck_block_23/depthwise_conv2d/depthwise", "op": "DepthwiseConv2dNative", "input": ["StatefulPartitionedCall/mobile_net_1/inverted_bottleneck_block_23/activation/Relu6", "StatefulPartitionedCall/mobile_net_1/inverted_bottleneck_block_23/depthwise_conv2d/depthwise/ReadVariableOp"], "attr": {"padding": {"s": "U0FNRQ=="}, "data_format": {"s": "TkhXQw=="}, "T": {"type": "DT_FLOAT"}, "explicit_paddings": {"list": {}}, "dilations": {"list": {"i": ["1", "1", "1", "1"]}}, "strides": {"list": {"i": ["1", "2", "2", "1"]}}}}, {"name": "StatefulPartitionedCall/mobile_net_1/inverted_bottleneck_block_23/batch_normalization_1/batchnorm/mul_1", "op": "Mul", "input": ["StatefulPartitionedCall/mobile_net_1/inverted_bottleneck_block_23/depthwise_conv2d/depthwise", "StatefulPartitionedCall/mobile_net_1/inverted_bottleneck_block_23/batch_normalization_1/batchnorm/mul"], "attr": {"T": {"type": "DT_FLOAT"}}}, {"name": "StatefulPartitionedCall/mobile_net_1/inverted_bottleneck_block_23/batch_normalization_1/batchnorm/add_1", "op": "AddV2", "input": ["StatefulPartitionedCall/mobile_net_1/inverted_bottleneck_block_23/batch_normalization_1/batchnorm/mul_1", "StatefulPartitionedCall/mobile_net_1/inverted_bottleneck_block_23/batch_normalization_1/batchnorm/sub"], "attr": {"T": {"type": "DT_FLOAT"}}}, {"name": "StatefulPartitionedCall/mobile_net_1/inverted_bottleneck_block_23/activation_1/Relu6", "op": "Relu6", "input": ["StatefulPartitionedCall/mobile_net_1/inverted_bottleneck_block_23/batch_normalization_1/batchnorm/add_1"], "attr": {"T": {"type": "DT_FLOAT"}}}, {"name": "StatefulPartitionedCall/mobile_net_1/inverted_bottleneck_block_23/batch_normalization_2/batchnorm/add_1", "op": "_FusedConv2D", "input": ["StatefulPartitionedCall/mobile_net_1/inverted_bottleneck_block_23/activation_1/Relu6", "StatefulPartitionedCall/mobile_net_1/inverted_bottleneck_block_23/conv2d_1/Conv2D/merged_input", "StatefulPartitionedCall/mobile_net_1/inverted_bottleneck_block_23/batch_normalization_2/batchnorm/sub"], "device": "/device:CPU:0", "attr": {"num_host_args": {"i": "0"}, "data_format": {"s": "TkhXQw=="}, "filter_format": {"s": "SFdJTw=="}, "fused_ops": {"list": {"s": ["Qmlhc0FkZA=="]}}, "num_args": {"i": "1"}, "strides": {"list": {"i": ["1", "1", "1", "1"]}}, "TArgs": {"list": {"type": ["DT_FLOAT"]}}, "padding": {"s": "U0FNRQ=="}, "use_cudnn_on_gpu": {"b": true}, "leakyrelu_alpha": {"f": 0.2}, "epsilon": {"f": 0.0}, "T": {"type": "DT_FLOAT"}, "explicit_paddings": {"list": {}}, "dilations": {"list": {"i": ["1", "1", "1", "1"]}}}}, {"name": "StatefulPartitionedCall/mobile_net_1/inverted_bottleneck_block_24/activation/Relu6", "op": "_FusedConv2D", "input": ["StatefulPartitionedCall/mobile_net_1/inverted_bottleneck_block_23/batch_normalization_2/batchnorm/add_1", "StatefulPartitionedCall/mobile_net_1/inverted_bottleneck_block_24/conv2d/Conv2D/merged_input", "StatefulPartitionedCall/mobile_net_1/inverted_bottleneck_block_24/batch_normalization/batchnorm/sub"], "device": "/device:CPU:0", "attr": {"num_host_args": {"i": "0"}, "data_format": {"s": "TkhXQw=="}, "filter_format": {"s": "SFdJTw=="}, "strides": {"list": {"i": ["1", "1", "1", "1"]}}, "num_args": {"i": "1"}, "fused_ops": {"list": {"s": ["Qmlhc0FkZA==", "UmVsdTY="]}}, "TArgs": {"list": {"type": ["DT_FLOAT"]}}, "padding": {"s": "U0FNRQ=="}, "use_cudnn_on_gpu": {"b": true}, "leakyrelu_alpha": {"f": 0.2}, "epsilon": {"f": 0.0}, "T": {"type": "DT_FLOAT"}, "explicit_paddings": {"list": {}}, "dilations": {"list": {"i": ["1", "1", "1", "1"]}}}}, {"name": "StatefulPartitionedCall/mobile_net_1/inverted_bottleneck_block_24/depthwise_conv2d/depthwise", "op": "DepthwiseConv2dNative", "input": ["StatefulPartitionedCall/mobile_net_1/inverted_bottleneck_block_24/activation/Relu6", "StatefulPartitionedCall/mobile_net_1/inverted_bottleneck_block_24/depthwise_conv2d/depthwise/ReadVariableOp"], "attr": {"padding": {"s": "U0FNRQ=="}, "data_format": {"s": "TkhXQw=="}, "T": {"type": "DT_FLOAT"}, "explicit_paddings": {"list": {}}, "dilations": {"list": {"i": ["1", "1", "1", "1"]}}, "strides": {"list": {"i": ["1", "1", "1", "1"]}}}}, {"name": "StatefulPartitionedCall/mobile_net_1/inverted_bottleneck_block_24/batch_normalization_1/batchnorm/mul_1", "op": "Mul", "input": ["StatefulPartitionedCall/mobile_net_1/inverted_bottleneck_block_24/depthwise_conv2d/depthwise", "StatefulPartitionedCall/mobile_net_1/inverted_bottleneck_block_24/batch_normalization_1/batchnorm/mul"], "attr": {"T": {"type": "DT_FLOAT"}}}, {"name": "StatefulPartitionedCall/mobile_net_1/inverted_bottleneck_block_24/batch_normalization_1/batchnorm/add_1", "op": "AddV2", "input": ["StatefulPartitionedCall/mobile_net_1/inverted_bottleneck_block_24/batch_normalization_1/batchnorm/mul_1", "StatefulPartitionedCall/mobile_net_1/inverted_bottleneck_block_24/batch_normalization_1/batchnorm/sub"], "attr": {"T": {"type": "DT_FLOAT"}}}, {"name": "StatefulPartitionedCall/mobile_net_1/inverted_bottleneck_block_24/activation_1/Relu6", "op": "Relu6", "input": ["StatefulPartitionedCall/mobile_net_1/inverted_bottleneck_block_24/batch_normalization_1/batchnorm/add_1"], "attr": {"T": {"type": "DT_FLOAT"}}}, {"name": "StatefulPartitionedCall/mobile_net_1/inverted_bottleneck_block_24/batch_normalization_2/batchnorm/mul_1", "op": "Conv2D", "input": ["StatefulPartitionedCall/mobile_net_1/inverted_bottleneck_block_24/activation_1/Relu6", "StatefulPartitionedCall/mobile_net_1/inverted_bottleneck_block_24/conv2d_1/Conv2D/merged_input"], "device": "/device:CPU:0", "attr": {"padding": {"s": "U0FNRQ=="}, "data_format": {"s": "TkhXQw=="}, "strides": {"list": {"i": ["1", "1", "1", "1"]}}, "use_cudnn_on_gpu": {"b": true}, "T": {"type": "DT_FLOAT"}, "explicit_paddings": {"list": {}}, "dilations": {"list": {"i": ["1", "1", "1", "1"]}}}}, {"name": "StatefulPartitionedCall/mobile_net_1/inverted_bottleneck_block_24/add/ArithmeticOptimizer/AddOpsRewrite_Leaf_1_add", "op": "AddN", "input": ["StatefulPartitionedCall/mobile_net_1/inverted_bottleneck_block_24/batch_normalization_2/batchnorm/mul_1", "StatefulPartitionedCall/mobile_net_1/inverted_bottleneck_block_23/batch_normalization_2/batchnorm/add_1"], "attr": {"N": {"i": "2"}, "T": {"type": "DT_FLOAT"}, "_grappler_ArithmeticOptimizer_AddOpsRewriteStage": {"b": true}}}, {"name": "StatefulPartitionedCall/mobile_net_1/inverted_bottleneck_block_24/add/ArithmeticOptimizer/AddOpsRewrite_add", "op": "AddV2", "input": ["StatefulPartitionedCall/mobile_net_1/inverted_bottleneck_block_24/batch_normalization_2/batchnorm/sub", "StatefulPartitionedCall/mobile_net_1/inverted_bottleneck_block_24/add/ArithmeticOptimizer/AddOpsRewrite_Leaf_1_add"], "attr": {"T": {"type": "DT_FLOAT"}, "_grappler_ArithmeticOptimizer_AddOpsRewriteStage": {"b": true}}}, {"name": "StatefulPartitionedCall/mobile_net_1/inverted_bottleneck_block_25/activation/Relu6", "op": "_FusedConv2D", "input": ["StatefulPartitionedCall/mobile_net_1/inverted_bottleneck_block_24/add/ArithmeticOptimizer/AddOpsRewrite_add", "StatefulPartitionedCall/mobile_net_1/inverted_bottleneck_block_25/conv2d/Conv2D/merged_input", "StatefulPartitionedCall/mobile_net_1/inverted_bottleneck_block_25/batch_normalization/batchnorm/sub"], "device": "/device:CPU:0", "attr": {"num_host_args": {"i": "0"}, "data_format": {"s": "TkhXQw=="}, "filter_format": {"s": "SFdJTw=="}, "fused_ops": {"list": {"s": ["Qmlhc0FkZA==", "UmVsdTY="]}}, "num_args": {"i": "1"}, "strides": {"list": {"i": ["1", "1", "1", "1"]}}, "TArgs": {"list": {"type": ["DT_FLOAT"]}}, "padding": {"s": "U0FNRQ=="}, "use_cudnn_on_gpu": {"b": true}, "leakyrelu_alpha": {"f": 0.2}, "epsilon": {"f": 0.0}, "T": {"type": "DT_FLOAT"}, "explicit_paddings": {"list": {}}, "dilations": {"list": {"i": ["1", "1", "1", "1"]}}}}, {"name": "StatefulPartitionedCall/mobile_net_1/inverted_bottleneck_block_25/depthwise_conv2d/depthwise", "op": "DepthwiseConv2dNative", "input": ["StatefulPartitionedCall/mobile_net_1/inverted_bottleneck_block_25/activation/Relu6", "StatefulPartitionedCall/mobile_net_1/inverted_bottleneck_block_25/depthwise_conv2d/depthwise/ReadVariableOp"], "attr": {"padding": {"s": "U0FNRQ=="}, "data_format": {"s": "TkhXQw=="}, "T": {"type": "DT_FLOAT"}, "explicit_paddings": {"list": {}}, "dilations": {"list": {"i": ["1", "1", "1", "1"]}}, "strides": {"list": {"i": ["1", "1", "1", "1"]}}}}, {"name": "StatefulPartitionedCall/mobile_net_1/inverted_bottleneck_block_25/batch_normalization_1/batchnorm/mul_1", "op": "Mul", "input": ["StatefulPartitionedCall/mobile_net_1/inverted_bottleneck_block_25/depthwise_conv2d/depthwise", "StatefulPartitionedCall/mobile_net_1/inverted_bottleneck_block_25/batch_normalization_1/batchnorm/mul"], "attr": {"T": {"type": "DT_FLOAT"}}}, {"name": "StatefulPartitionedCall/mobile_net_1/inverted_bottleneck_block_25/batch_normalization_1/batchnorm/add_1", "op": "AddV2", "input": ["StatefulPartitionedCall/mobile_net_1/inverted_bottleneck_block_25/batch_normalization_1/batchnorm/mul_1", "StatefulPartitionedCall/mobile_net_1/inverted_bottleneck_block_25/batch_normalization_1/batchnorm/sub"], "attr": {"T": {"type": "DT_FLOAT"}}}, {"name": "StatefulPartitionedCall/mobile_net_1/inverted_bottleneck_block_25/activation_1/Relu6", "op": "Relu6", "input": ["StatefulPartitionedCall/mobile_net_1/inverted_bottleneck_block_25/batch_normalization_1/batchnorm/add_1"], "attr": {"T": {"type": "DT_FLOAT"}}}, {"name": "StatefulPartitionedCall/mobile_net_1/inverted_bottleneck_block_25/batch_normalization_2/batchnorm/mul_1", "op": "Conv2D", "input": ["StatefulPartitionedCall/mobile_net_1/inverted_bottleneck_block_25/activation_1/Relu6", "StatefulPartitionedCall/mobile_net_1/inverted_bottleneck_block_25/conv2d_1/Conv2D/merged_input"], "device": "/device:CPU:0", "attr": {"padding": {"s": "U0FNRQ=="}, "data_format": {"s": "TkhXQw=="}, "strides": {"list": {"i": ["1", "1", "1", "1"]}}, "use_cudnn_on_gpu": {"b": true}, "T": {"type": "DT_FLOAT"}, "explicit_paddings": {"list": {}}, "dilations": {"list": {"i": ["1", "1", "1", "1"]}}}}, {"name": "StatefulPartitionedCall/mobile_net_1/inverted_bottleneck_block_25/add/ArithmeticOptimizer/AddOpsRewrite_Leaf_1_add", "op": "AddN", "input": ["StatefulPartitionedCall/mobile_net_1/inverted_bottleneck_block_25/batch_normalization_2/batchnorm/mul_1", "StatefulPartitionedCall/mobile_net_1/inverted_bottleneck_block_24/add/ArithmeticOptimizer/AddOpsRewrite_add"], "attr": {"N": {"i": "2"}, "T": {"type": "DT_FLOAT"}, "_grappler_ArithmeticOptimizer_AddOpsRewriteStage": {"b": true}}}, {"name": "StatefulPartitionedCall/mobile_net_1/inverted_bottleneck_block_25/add/ArithmeticOptimizer/AddOpsRewrite_add", "op": "AddV2", "input": ["StatefulPartitionedCall/mobile_net_1/inverted_bottleneck_block_25/batch_normalization_2/batchnorm/sub", "StatefulPartitionedCall/mobile_net_1/inverted_bottleneck_block_25/add/ArithmeticOptimizer/AddOpsRewrite_Leaf_1_add"], "attr": {"T": {"type": "DT_FLOAT"}, "_grappler_ArithmeticOptimizer_AddOpsRewriteStage": {"b": true}}}, {"name": "StatefulPartitionedCall/mobile_net_1/inverted_bottleneck_block_26/activation/Relu6", "op": "_FusedConv2D", "input": ["StatefulPartitionedCall/mobile_net_1/inverted_bottleneck_block_25/add/ArithmeticOptimizer/AddOpsRewrite_add", "StatefulPartitionedCall/mobile_net_1/inverted_bottleneck_block_26/conv2d/Conv2D/merged_input", "StatefulPartitionedCall/mobile_net_1/inverted_bottleneck_block_26/batch_normalization/batchnorm/sub"], "device": "/device:CPU:0", "attr": {"num_host_args": {"i": "0"}, "data_format": {"s": "TkhXQw=="}, "filter_format": {"s": "SFdJTw=="}, "strides": {"list": {"i": ["1", "1", "1", "1"]}}, "num_args": {"i": "1"}, "fused_ops": {"list": {"s": ["Qmlhc0FkZA==", "UmVsdTY="]}}, "TArgs": {"list": {"type": ["DT_FLOAT"]}}, "padding": {"s": "U0FNRQ=="}, "use_cudnn_on_gpu": {"b": true}, "leakyrelu_alpha": {"f": 0.2}, "epsilon": {"f": 0.0}, "T": {"type": "DT_FLOAT"}, "explicit_paddings": {"list": {}}, "dilations": {"list": {"i": ["1", "1", "1", "1"]}}}}, {"name": "StatefulPartitionedCall/mobile_net_1/inverted_bottleneck_block_26/depthwise_conv2d/depthwise", "op": "DepthwiseConv2dNative", "input": ["StatefulPartitionedCall/mobile_net_1/inverted_bottleneck_block_26/activation/Relu6", "StatefulPartitionedCall/mobile_net_1/inverted_bottleneck_block_26/depthwise_conv2d/depthwise/ReadVariableOp"], "attr": {"padding": {"s": "U0FNRQ=="}, "data_format": {"s": "TkhXQw=="}, "T": {"type": "DT_FLOAT"}, "explicit_paddings": {"list": {}}, "dilations": {"list": {"i": ["1", "1", "1", "1"]}}, "strides": {"list": {"i": ["1", "1", "1", "1"]}}}}, {"name": "StatefulPartitionedCall/mobile_net_1/inverted_bottleneck_block_26/batch_normalization_1/batchnorm/mul_1", "op": "Mul", "input": ["StatefulPartitionedCall/mobile_net_1/inverted_bottleneck_block_26/depthwise_conv2d/depthwise", "StatefulPartitionedCall/mobile_net_1/inverted_bottleneck_block_26/batch_normalization_1/batchnorm/mul"], "attr": {"T": {"type": "DT_FLOAT"}}}, {"name": "StatefulPartitionedCall/mobile_net_1/inverted_bottleneck_block_26/batch_normalization_1/batchnorm/add_1", "op": "AddV2", "input": ["StatefulPartitionedCall/mobile_net_1/inverted_bottleneck_block_26/batch_normalization_1/batchnorm/mul_1", "StatefulPartitionedCall/mobile_net_1/inverted_bottleneck_block_26/batch_normalization_1/batchnorm/sub"], "attr": {"T": {"type": "DT_FLOAT"}}}, {"name": "StatefulPartitionedCall/mobile_net_1/inverted_bottleneck_block_26/activation_1/Relu6", "op": "Relu6", "input": ["StatefulPartitionedCall/mobile_net_1/inverted_bottleneck_block_26/batch_normalization_1/batchnorm/add_1"], "attr": {"T": {"type": "DT_FLOAT"}}}, {"name": "StatefulPartitionedCall/mobile_net_1/inverted_bottleneck_block_26/batch_normalization_2/batchnorm/mul_1", "op": "Conv2D", "input": ["StatefulPartitionedCall/mobile_net_1/inverted_bottleneck_block_26/activation_1/Relu6", "StatefulPartitionedCall/mobile_net_1/inverted_bottleneck_block_26/conv2d_1/Conv2D/merged_input"], "device": "/device:CPU:0", "attr": {"padding": {"s": "U0FNRQ=="}, "data_format": {"s": "TkhXQw=="}, "use_cudnn_on_gpu": {"b": true}, "strides": {"list": {"i": ["1", "1", "1", "1"]}}, "T": {"type": "DT_FLOAT"}, "explicit_paddings": {"list": {}}, "dilations": {"list": {"i": ["1", "1", "1", "1"]}}}}, {"name": "StatefulPartitionedCall/mobile_net_1/inverted_bottleneck_block_26/add/ArithmeticOptimizer/AddOpsRewrite_Leaf_1_add", "op": "AddN", "input": ["StatefulPartitionedCall/mobile_net_1/inverted_bottleneck_block_26/batch_normalization_2/batchnorm/mul_1", "StatefulPartitionedCall/mobile_net_1/inverted_bottleneck_block_25/add/ArithmeticOptimizer/AddOpsRewrite_add"], "attr": {"N": {"i": "2"}, "T": {"type": "DT_FLOAT"}, "_grappler_ArithmeticOptimizer_AddOpsRewriteStage": {"b": true}}}, {"name": "StatefulPartitionedCall/mobile_net_1/inverted_bottleneck_block_26/add/ArithmeticOptimizer/AddOpsRewrite_add", "op": "AddV2", "input": ["StatefulPartitionedCall/mobile_net_1/inverted_bottleneck_block_26/batch_normalization_2/batchnorm/sub", "StatefulPartitionedCall/mobile_net_1/inverted_bottleneck_block_26/add/ArithmeticOptimizer/AddOpsRewrite_Leaf_1_add"], "attr": {"T": {"type": "DT_FLOAT"}, "_grappler_ArithmeticOptimizer_AddOpsRewriteStage": {"b": true}}}, {"name": "StatefulPartitionedCall/mobile_net_1/inverted_bottleneck_block_27/activation/Relu6", "op": "_FusedConv2D", "input": ["StatefulPartitionedCall/mobile_net_1/inverted_bottleneck_block_26/add/ArithmeticOptimizer/AddOpsRewrite_add", "StatefulPartitionedCall/mobile_net_1/inverted_bottleneck_block_27/conv2d/Conv2D/merged_input", "StatefulPartitionedCall/mobile_net_1/inverted_bottleneck_block_27/batch_normalization/batchnorm/sub"], "device": "/device:CPU:0", "attr": {"num_host_args": {"i": "0"}, "data_format": {"s": "TkhXQw=="}, "filter_format": {"s": "SFdJTw=="}, "fused_ops": {"list": {"s": ["Qmlhc0FkZA==", "UmVsdTY="]}}, "num_args": {"i": "1"}, "strides": {"list": {"i": ["1", "1", "1", "1"]}}, "TArgs": {"list": {"type": ["DT_FLOAT"]}}, "padding": {"s": "U0FNRQ=="}, "use_cudnn_on_gpu": {"b": true}, "leakyrelu_alpha": {"f": 0.2}, "epsilon": {"f": 0.0}, "T": {"type": "DT_FLOAT"}, "explicit_paddings": {"list": {}}, "dilations": {"list": {"i": ["1", "1", "1", "1"]}}}}, {"name": "StatefulPartitionedCall/mobile_net_1/inverted_bottleneck_block_27/depthwise_conv2d/depthwise", "op": "DepthwiseConv2dNative", "input": ["StatefulPartitionedCall/mobile_net_1/inverted_bottleneck_block_27/activation/Relu6", "StatefulPartitionedCall/mobile_net_1/inverted_bottleneck_block_27/depthwise_conv2d/depthwise/ReadVariableOp"], "attr": {"padding": {"s": "U0FNRQ=="}, "data_format": {"s": "TkhXQw=="}, "T": {"type": "DT_FLOAT"}, "explicit_paddings": {"list": {}}, "dilations": {"list": {"i": ["1", "1", "1", "1"]}}, "strides": {"list": {"i": ["1", "1", "1", "1"]}}}}, {"name": "StatefulPartitionedCall/mobile_net_1/inverted_bottleneck_block_27/batch_normalization_1/batchnorm/mul_1", "op": "Mul", "input": ["StatefulPartitionedCall/mobile_net_1/inverted_bottleneck_block_27/depthwise_conv2d/depthwise", "StatefulPartitionedCall/mobile_net_1/inverted_bottleneck_block_27/batch_normalization_1/batchnorm/mul"], "attr": {"T": {"type": "DT_FLOAT"}}}, {"name": "StatefulPartitionedCall/mobile_net_1/inverted_bottleneck_block_27/batch_normalization_1/batchnorm/add_1", "op": "AddV2", "input": ["StatefulPartitionedCall/mobile_net_1/inverted_bottleneck_block_27/batch_normalization_1/batchnorm/mul_1", "StatefulPartitionedCall/mobile_net_1/inverted_bottleneck_block_27/batch_normalization_1/batchnorm/sub"], "attr": {"T": {"type": "DT_FLOAT"}}}, {"name": "StatefulPartitionedCall/mobile_net_1/inverted_bottleneck_block_27/activation_1/Relu6", "op": "Relu6", "input": ["StatefulPartitionedCall/mobile_net_1/inverted_bottleneck_block_27/batch_normalization_1/batchnorm/add_1"], "attr": {"T": {"type": "DT_FLOAT"}}}, {"name": "StatefulPartitionedCall/mobile_net_1/inverted_bottleneck_block_27/batch_normalization_2/batchnorm/add_1", "op": "_FusedConv2D", "input": ["StatefulPartitionedCall/mobile_net_1/inverted_bottleneck_block_27/activation_1/Relu6", "StatefulPartitionedCall/mobile_net_1/inverted_bottleneck_block_27/conv2d_1/Conv2D/merged_input", "StatefulPartitionedCall/mobile_net_1/inverted_bottleneck_block_27/batch_normalization_2/batchnorm/sub"], "device": "/device:CPU:0", "attr": {"num_host_args": {"i": "0"}, "data_format": {"s": "TkhXQw=="}, "filter_format": {"s": "SFdJTw=="}, "fused_ops": {"list": {"s": ["Qmlhc0FkZA=="]}}, "num_args": {"i": "1"}, "strides": {"list": {"i": ["1", "1", "1", "1"]}}, "TArgs": {"list": {"type": ["DT_FLOAT"]}}, "padding": {"s": "U0FNRQ=="}, "use_cudnn_on_gpu": {"b": true}, "leakyrelu_alpha": {"f": 0.2}, "epsilon": {"f": 0.0}, "T": {"type": "DT_FLOAT"}, "explicit_paddings": {"list": {}}, "dilations": {"list": {"i": ["1", "1", "1", "1"]}}}}, {"name": "StatefulPartitionedCall/mobile_net_1/inverted_bottleneck_block_28/activation/Relu6", "op": "_FusedConv2D", "input": ["StatefulPartitionedCall/mobile_net_1/inverted_bottleneck_block_27/batch_normalization_2/batchnorm/add_1", "StatefulPartitionedCall/mobile_net_1/inverted_bottleneck_block_28/conv2d/Conv2D/merged_input", "StatefulPartitionedCall/mobile_net_1/inverted_bottleneck_block_28/batch_normalization/batchnorm/sub"], "device": "/device:CPU:0", "attr": {"num_host_args": {"i": "0"}, "data_format": {"s": "TkhXQw=="}, "filter_format": {"s": "SFdJTw=="}, "strides": {"list": {"i": ["1", "1", "1", "1"]}}, "num_args": {"i": "1"}, "fused_ops": {"list": {"s": ["Qmlhc0FkZA==", "UmVsdTY="]}}, "TArgs": {"list": {"type": ["DT_FLOAT"]}}, "padding": {"s": "U0FNRQ=="}, "use_cudnn_on_gpu": {"b": true}, "leakyrelu_alpha": {"f": 0.2}, "epsilon": {"f": 0.0}, "T": {"type": "DT_FLOAT"}, "explicit_paddings": {"list": {}}, "dilations": {"list": {"i": ["1", "1", "1", "1"]}}}}, {"name": "StatefulPartitionedCall/mobile_net_1/inverted_bottleneck_block_28/depthwise_conv2d/depthwise", "op": "DepthwiseConv2dNative", "input": ["StatefulPartitionedCall/mobile_net_1/inverted_bottleneck_block_28/activation/Relu6", "StatefulPartitionedCall/mobile_net_1/inverted_bottleneck_block_28/depthwise_conv2d/depthwise/ReadVariableOp"], "attr": {"padding": {"s": "U0FNRQ=="}, "data_format": {"s": "TkhXQw=="}, "T": {"type": "DT_FLOAT"}, "explicit_paddings": {"list": {}}, "dilations": {"list": {"i": ["1", "1", "1", "1"]}}, "strides": {"list": {"i": ["1", "1", "1", "1"]}}}}, {"name": "StatefulPartitionedCall/mobile_net_1/inverted_bottleneck_block_28/batch_normalization_1/batchnorm/mul_1", "op": "Mul", "input": ["StatefulPartitionedCall/mobile_net_1/inverted_bottleneck_block_28/depthwise_conv2d/depthwise", "StatefulPartitionedCall/mobile_net_1/inverted_bottleneck_block_28/batch_normalization_1/batchnorm/mul"], "attr": {"T": {"type": "DT_FLOAT"}}}, {"name": "StatefulPartitionedCall/mobile_net_1/inverted_bottleneck_block_28/batch_normalization_1/batchnorm/add_1", "op": "AddV2", "input": ["StatefulPartitionedCall/mobile_net_1/inverted_bottleneck_block_28/batch_normalization_1/batchnorm/mul_1", "StatefulPartitionedCall/mobile_net_1/inverted_bottleneck_block_28/batch_normalization_1/batchnorm/sub"], "attr": {"T": {"type": "DT_FLOAT"}}}, {"name": "StatefulPartitionedCall/mobile_net_1/inverted_bottleneck_block_28/activation_1/Relu6", "op": "Relu6", "input": ["StatefulPartitionedCall/mobile_net_1/inverted_bottleneck_block_28/batch_normalization_1/batchnorm/add_1"], "attr": {"T": {"type": "DT_FLOAT"}}}, {"name": "StatefulPartitionedCall/mobile_net_1/inverted_bottleneck_block_28/batch_normalization_2/batchnorm/mul_1", "op": "Conv2D", "input": ["StatefulPartitionedCall/mobile_net_1/inverted_bottleneck_block_28/activation_1/Relu6", "StatefulPartitionedCall/mobile_net_1/inverted_bottleneck_block_28/conv2d_1/Conv2D/merged_input"], "device": "/device:CPU:0", "attr": {"padding": {"s": "U0FNRQ=="}, "data_format": {"s": "TkhXQw=="}, "use_cudnn_on_gpu": {"b": true}, "strides": {"list": {"i": ["1", "1", "1", "1"]}}, "T": {"type": "DT_FLOAT"}, "explicit_paddings": {"list": {}}, "dilations": {"list": {"i": ["1", "1", "1", "1"]}}}}, {"name": "StatefulPartitionedCall/mobile_net_1/inverted_bottleneck_block_28/add/ArithmeticOptimizer/AddOpsRewrite_Leaf_1_add", "op": "AddN", "input": ["StatefulPartitionedCall/mobile_net_1/inverted_bottleneck_block_28/batch_normalization_2/batchnorm/mul_1", "StatefulPartitionedCall/mobile_net_1/inverted_bottleneck_block_27/batch_normalization_2/batchnorm/add_1"], "attr": {"N": {"i": "2"}, "T": {"type": "DT_FLOAT"}, "_grappler_ArithmeticOptimizer_AddOpsRewriteStage": {"b": true}}}, {"name": "StatefulPartitionedCall/mobile_net_1/inverted_bottleneck_block_28/add/ArithmeticOptimizer/AddOpsRewrite_add", "op": "AddV2", "input": ["StatefulPartitionedCall/mobile_net_1/inverted_bottleneck_block_28/batch_normalization_2/batchnorm/sub", "StatefulPartitionedCall/mobile_net_1/inverted_bottleneck_block_28/add/ArithmeticOptimizer/AddOpsRewrite_Leaf_1_add"], "attr": {"T": {"type": "DT_FLOAT"}, "_grappler_ArithmeticOptimizer_AddOpsRewriteStage": {"b": true}}}, {"name": "StatefulPartitionedCall/mobile_net_1/inverted_bottleneck_block_29/activation/Relu6", "op": "_FusedConv2D", "input": ["StatefulPartitionedCall/mobile_net_1/inverted_bottleneck_block_28/add/ArithmeticOptimizer/AddOpsRewrite_add", "StatefulPartitionedCall/mobile_net_1/inverted_bottleneck_block_29/conv2d/Conv2D/merged_input", "StatefulPartitionedCall/mobile_net_1/inverted_bottleneck_block_29/batch_normalization/batchnorm/sub"], "device": "/device:CPU:0", "attr": {"num_host_args": {"i": "0"}, "data_format": {"s": "TkhXQw=="}, "filter_format": {"s": "SFdJTw=="}, "strides": {"list": {"i": ["1", "1", "1", "1"]}}, "num_args": {"i": "1"}, "fused_ops": {"list": {"s": ["Qmlhc0FkZA==", "UmVsdTY="]}}, "TArgs": {"list": {"type": ["DT_FLOAT"]}}, "padding": {"s": "U0FNRQ=="}, "use_cudnn_on_gpu": {"b": true}, "leakyrelu_alpha": {"f": 0.2}, "epsilon": {"f": 0.0}, "T": {"type": "DT_FLOAT"}, "explicit_paddings": {"list": {}}, "dilations": {"list": {"i": ["1", "1", "1", "1"]}}}}, {"name": "StatefulPartitionedCall/mobile_net_1/inverted_bottleneck_block_29/depthwise_conv2d/depthwise", "op": "DepthwiseConv2dNative", "input": ["StatefulPartitionedCall/mobile_net_1/inverted_bottleneck_block_29/activation/Relu6", "StatefulPartitionedCall/mobile_net_1/inverted_bottleneck_block_29/depthwise_conv2d/depthwise/ReadVariableOp"], "attr": {"padding": {"s": "U0FNRQ=="}, "data_format": {"s": "TkhXQw=="}, "T": {"type": "DT_FLOAT"}, "explicit_paddings": {"list": {}}, "dilations": {"list": {"i": ["1", "1", "1", "1"]}}, "strides": {"list": {"i": ["1", "1", "1", "1"]}}}}, {"name": "StatefulPartitionedCall/mobile_net_1/inverted_bottleneck_block_29/batch_normalization_1/batchnorm/mul_1", "op": "Mul", "input": ["StatefulPartitionedCall/mobile_net_1/inverted_bottleneck_block_29/depthwise_conv2d/depthwise", "StatefulPartitionedCall/mobile_net_1/inverted_bottleneck_block_29/batch_normalization_1/batchnorm/mul"], "attr": {"T": {"type": "DT_FLOAT"}}}, {"name": "StatefulPartitionedCall/mobile_net_1/inverted_bottleneck_block_29/batch_normalization_1/batchnorm/add_1", "op": "AddV2", "input": ["StatefulPartitionedCall/mobile_net_1/inverted_bottleneck_block_29/batch_normalization_1/batchnorm/mul_1", "StatefulPartitionedCall/mobile_net_1/inverted_bottleneck_block_29/batch_normalization_1/batchnorm/sub"], "attr": {"T": {"type": "DT_FLOAT"}}}, {"name": "StatefulPartitionedCall/mobile_net_1/inverted_bottleneck_block_29/activation_1/Relu6", "op": "Relu6", "input": ["StatefulPartitionedCall/mobile_net_1/inverted_bottleneck_block_29/batch_normalization_1/batchnorm/add_1"], "attr": {"T": {"type": "DT_FLOAT"}}}, {"name": "StatefulPartitionedCall/mobile_net_1/inverted_bottleneck_block_29/batch_normalization_2/batchnorm/mul_1", "op": "Conv2D", "input": ["StatefulPartitionedCall/mobile_net_1/inverted_bottleneck_block_29/activation_1/Relu6", "StatefulPartitionedCall/mobile_net_1/inverted_bottleneck_block_29/conv2d_1/Conv2D/merged_input"], "device": "/device:CPU:0", "attr": {"padding": {"s": "U0FNRQ=="}, "data_format": {"s": "TkhXQw=="}, "use_cudnn_on_gpu": {"b": true}, "strides": {"list": {"i": ["1", "1", "1", "1"]}}, "T": {"type": "DT_FLOAT"}, "explicit_paddings": {"list": {}}, "dilations": {"list": {"i": ["1", "1", "1", "1"]}}}}, {"name": "StatefulPartitionedCall/mobile_net_1/inverted_bottleneck_block_29/add/ArithmeticOptimizer/AddOpsRewrite_Leaf_1_add", "op": "AddN", "input": ["StatefulPartitionedCall/mobile_net_1/inverted_bottleneck_block_29/batch_normalization_2/batchnorm/mul_1", "StatefulPartitionedCall/mobile_net_1/inverted_bottleneck_block_28/add/ArithmeticOptimizer/AddOpsRewrite_add"], "attr": {"N": {"i": "2"}, "T": {"type": "DT_FLOAT"}, "_grappler_ArithmeticOptimizer_AddOpsRewriteStage": {"b": true}}}, {"name": "StatefulPartitionedCall/mobile_net_1/inverted_bottleneck_block_29/add/ArithmeticOptimizer/AddOpsRewrite_add", "op": "AddV2", "input": ["StatefulPartitionedCall/mobile_net_1/inverted_bottleneck_block_29/batch_normalization_2/batchnorm/sub", "StatefulPartitionedCall/mobile_net_1/inverted_bottleneck_block_29/add/ArithmeticOptimizer/AddOpsRewrite_Leaf_1_add"], "attr": {"T": {"type": "DT_FLOAT"}, "_grappler_ArithmeticOptimizer_AddOpsRewriteStage": {"b": true}}}, {"name": "StatefulPartitionedCall/mobile_net_1/inverted_bottleneck_block_30/activation/Relu6", "op": "_FusedConv2D", "input": ["StatefulPartitionedCall/mobile_net_1/inverted_bottleneck_block_29/add/ArithmeticOptimizer/AddOpsRewrite_add", "StatefulPartitionedCall/mobile_net_1/inverted_bottleneck_block_30/conv2d/Conv2D/merged_input", "StatefulPartitionedCall/mobile_net_1/inverted_bottleneck_block_30/batch_normalization/batchnorm/sub"], "device": "/device:CPU:0", "attr": {"num_host_args": {"i": "0"}, "data_format": {"s": "TkhXQw=="}, "filter_format": {"s": "SFdJTw=="}, "fused_ops": {"list": {"s": ["Qmlhc0FkZA==", "UmVsdTY="]}}, "num_args": {"i": "1"}, "strides": {"list": {"i": ["1", "1", "1", "1"]}}, "TArgs": {"list": {"type": ["DT_FLOAT"]}}, "padding": {"s": "U0FNRQ=="}, "use_cudnn_on_gpu": {"b": true}, "leakyrelu_alpha": {"f": 0.2}, "epsilon": {"f": 0.0}, "T": {"type": "DT_FLOAT"}, "explicit_paddings": {"list": {}}, "dilations": {"list": {"i": ["1", "1", "1", "1"]}}}}, {"name": "StatefulPartitionedCall/mobile_net_1/inverted_bottleneck_block_30/depthwise_conv2d/depthwise/SpaceToBatchND", "op": "SpaceToBatchND", "input": ["StatefulPartitionedCall/mobile_net_1/inverted_bottleneck_block_30/activation/Relu6", "StatefulPartitionedCall/mobile_net_1/inverted_bottleneck_block_30/depthwise_conv2d/depthwise/SpaceToBatchND/block_shape", "StatefulPartitionedCall/mobile_net_1/inverted_bottleneck_block_30/depthwise_conv2d/depthwise/SpaceToBatchND/paddings"], "attr": {"Tblock_shape": {"type": "DT_INT32"}, "Tpaddings": {"type": "DT_INT32"}, "T": {"type": "DT_FLOAT"}}}, {"name": "StatefulPartitionedCall/mobile_net_1/inverted_bottleneck_block_30/depthwise_conv2d/depthwise", "op": "DepthwiseConv2dNative", "input": ["StatefulPartitionedCall/mobile_net_1/inverted_bottleneck_block_30/depthwise_conv2d/depthwise/SpaceToBatchND", "StatefulPartitionedCall/mobile_net_1/inverted_bottleneck_block_30/depthwise_conv2d/depthwise/ReadVariableOp"], "attr": {"padding": {"s": "VkFMSUQ="}, "data_format": {"s": "TkhXQw=="}, "T": {"type": "DT_FLOAT"}, "explicit_paddings": {"list": {}}, "dilations": {"list": {"i": ["1", "1", "1", "1"]}}, "strides": {"list": {"i": ["1", "1", "1", "1"]}}}}, {"name": "StatefulPartitionedCall/mobile_net_1/inverted_bottleneck_block_30/depthwise_conv2d/depthwise/BatchToSpaceND", "op": "BatchToSpaceND", "input": ["StatefulPartitionedCall/mobile_net_1/inverted_bottleneck_block_30/depthwise_conv2d/depthwise", "StatefulPartitionedCall/mobile_net_1/inverted_bottleneck_block_30/depthwise_conv2d/depthwise/BatchToSpaceND/block_shape", "StatefulPartitionedCall/mobile_net_1/inverted_bottleneck_block_30/depthwise_conv2d/depthwise/BatchToSpaceND/crops"], "attr": {"Tblock_shape": {"type": "DT_INT32"}, "Tcrops": {"type": "DT_INT32"}, "T": {"type": "DT_FLOAT"}}}, {"name": "StatefulPartitionedCall/mobile_net_1/inverted_bottleneck_block_30/batch_normalization_1/batchnorm/mul_1", "op": "Mul", "input": ["StatefulPartitionedCall/mobile_net_1/inverted_bottleneck_block_30/depthwise_conv2d/depthwise/BatchToSpaceND", "StatefulPartitionedCall/mobile_net_1/inverted_bottleneck_block_30/batch_normalization_1/batchnorm/mul"], "attr": {"T": {"type": "DT_FLOAT"}}}, {"name": "StatefulPartitionedCall/mobile_net_1/inverted_bottleneck_block_30/batch_normalization_1/batchnorm/add_1", "op": "AddV2", "input": ["StatefulPartitionedCall/mobile_net_1/inverted_bottleneck_block_30/batch_normalization_1/batchnorm/mul_1", "StatefulPartitionedCall/mobile_net_1/inverted_bottleneck_block_30/batch_normalization_1/batchnorm/sub"], "attr": {"T": {"type": "DT_FLOAT"}}}, {"name": "StatefulPartitionedCall/mobile_net_1/inverted_bottleneck_block_30/activation_1/Relu6", "op": "Relu6", "input": ["StatefulPartitionedCall/mobile_net_1/inverted_bottleneck_block_30/batch_normalization_1/batchnorm/add_1"], "attr": {"T": {"type": "DT_FLOAT"}}}, {"name": "StatefulPartitionedCall/mobile_net_1/inverted_bottleneck_block_30/batch_normalization_2/batchnorm/add_1", "op": "_FusedConv2D", "input": ["StatefulPartitionedCall/mobile_net_1/inverted_bottleneck_block_30/activation_1/Relu6", "StatefulPartitionedCall/mobile_net_1/inverted_bottleneck_block_30/conv2d_1/Conv2D/merged_input", "StatefulPartitionedCall/mobile_net_1/inverted_bottleneck_block_30/batch_normalization_2/batchnorm/sub"], "device": "/device:CPU:0", "attr": {"num_host_args": {"i": "0"}, "data_format": {"s": "TkhXQw=="}, "filter_format": {"s": "SFdJTw=="}, "fused_ops": {"list": {"s": ["Qmlhc0FkZA=="]}}, "num_args": {"i": "1"}, "strides": {"list": {"i": ["1", "1", "1", "1"]}}, "TArgs": {"list": {"type": ["DT_FLOAT"]}}, "padding": {"s": "U0FNRQ=="}, "use_cudnn_on_gpu": {"b": true}, "leakyrelu_alpha": {"f": 0.2}, "epsilon": {"f": 0.0}, "T": {"type": "DT_FLOAT"}, "explicit_paddings": {"list": {}}, "dilations": {"list": {"i": ["1", "1", "1", "1"]}}}}, {"name": "StatefulPartitionedCall/mobile_net_1/inverted_bottleneck_block_31/activation/Relu6", "op": "_FusedConv2D", "input": ["StatefulPartitionedCall/mobile_net_1/inverted_bottleneck_block_30/batch_normalization_2/batchnorm/add_1", "StatefulPartitionedCall/mobile_net_1/inverted_bottleneck_block_31/conv2d/Conv2D/merged_input", "StatefulPartitionedCall/mobile_net_1/inverted_bottleneck_block_31/batch_normalization/batchnorm/sub"], "device": "/device:CPU:0", "attr": {"num_host_args": {"i": "0"}, "data_format": {"s": "TkhXQw=="}, "filter_format": {"s": "SFdJTw=="}, "strides": {"list": {"i": ["1", "1", "1", "1"]}}, "num_args": {"i": "1"}, "fused_ops": {"list": {"s": ["Qmlhc0FkZA==", "UmVsdTY="]}}, "TArgs": {"list": {"type": ["DT_FLOAT"]}}, "padding": {"s": "U0FNRQ=="}, "use_cudnn_on_gpu": {"b": true}, "leakyrelu_alpha": {"f": 0.2}, "epsilon": {"f": 0.0}, "T": {"type": "DT_FLOAT"}, "explicit_paddings": {"list": {}}, "dilations": {"list": {"i": ["1", "1", "1", "1"]}}}}, {"name": "StatefulPartitionedCall/mobile_net_1/inverted_bottleneck_block_31/depthwise_conv2d/depthwise/SpaceToBatchND", "op": "SpaceToBatchND", "input": ["StatefulPartitionedCall/mobile_net_1/inverted_bottleneck_block_31/activation/Relu6", "StatefulPartitionedCall/mobile_net_1/inverted_bottleneck_block_31/depthwise_conv2d/depthwise/SpaceToBatchND/block_shape", "StatefulPartitionedCall/mobile_net_1/inverted_bottleneck_block_31/depthwise_conv2d/depthwise/SpaceToBatchND/paddings"], "attr": {"Tblock_shape": {"type": "DT_INT32"}, "Tpaddings": {"type": "DT_INT32"}, "T": {"type": "DT_FLOAT"}}}, {"name": "StatefulPartitionedCall/mobile_net_1/inverted_bottleneck_block_31/depthwise_conv2d/depthwise", "op": "DepthwiseConv2dNative", "input": ["StatefulPartitionedCall/mobile_net_1/inverted_bottleneck_block_31/depthwise_conv2d/depthwise/SpaceToBatchND", "StatefulPartitionedCall/mobile_net_1/inverted_bottleneck_block_31/depthwise_conv2d/depthwise/ReadVariableOp"], "attr": {"padding": {"s": "VkFMSUQ="}, "data_format": {"s": "TkhXQw=="}, "T": {"type": "DT_FLOAT"}, "explicit_paddings": {"list": {}}, "dilations": {"list": {"i": ["1", "1", "1", "1"]}}, "strides": {"list": {"i": ["1", "1", "1", "1"]}}}}, {"name": "StatefulPartitionedCall/mobile_net_1/inverted_bottleneck_block_31/depthwise_conv2d/depthwise/BatchToSpaceND", "op": "BatchToSpaceND", "input": ["StatefulPartitionedCall/mobile_net_1/inverted_bottleneck_block_31/depthwise_conv2d/depthwise", "StatefulPartitionedCall/mobile_net_1/inverted_bottleneck_block_31/depthwise_conv2d/depthwise/BatchToSpaceND/block_shape", "StatefulPartitionedCall/mobile_net_1/inverted_bottleneck_block_31/depthwise_conv2d/depthwise/BatchToSpaceND/crops"], "attr": {"Tblock_shape": {"type": "DT_INT32"}, "Tcrops": {"type": "DT_INT32"}, "T": {"type": "DT_FLOAT"}}}, {"name": "StatefulPartitionedCall/mobile_net_1/inverted_bottleneck_block_31/batch_normalization_1/batchnorm/mul_1", "op": "Mul", "input": ["StatefulPartitionedCall/mobile_net_1/inverted_bottleneck_block_31/depthwise_conv2d/depthwise/BatchToSpaceND", "StatefulPartitionedCall/mobile_net_1/inverted_bottleneck_block_31/batch_normalization_1/batchnorm/mul"], "attr": {"T": {"type": "DT_FLOAT"}}}, {"name": "StatefulPartitionedCall/mobile_net_1/inverted_bottleneck_block_31/batch_normalization_1/batchnorm/add_1", "op": "AddV2", "input": ["StatefulPartitionedCall/mobile_net_1/inverted_bottleneck_block_31/batch_normalization_1/batchnorm/mul_1", "StatefulPartitionedCall/mobile_net_1/inverted_bottleneck_block_31/batch_normalization_1/batchnorm/sub"], "attr": {"T": {"type": "DT_FLOAT"}}}, {"name": "StatefulPartitionedCall/mobile_net_1/inverted_bottleneck_block_31/activation_1/Relu6", "op": "Relu6", "input": ["StatefulPartitionedCall/mobile_net_1/inverted_bottleneck_block_31/batch_normalization_1/batchnorm/add_1"], "attr": {"T": {"type": "DT_FLOAT"}}}, {"name": "StatefulPartitionedCall/mobile_net_1/inverted_bottleneck_block_31/batch_normalization_2/batchnorm/mul_1", "op": "Conv2D", "input": ["StatefulPartitionedCall/mobile_net_1/inverted_bottleneck_block_31/activation_1/Relu6", "StatefulPartitionedCall/mobile_net_1/inverted_bottleneck_block_31/conv2d_1/Conv2D/merged_input"], "device": "/device:CPU:0", "attr": {"padding": {"s": "U0FNRQ=="}, "data_format": {"s": "TkhXQw=="}, "strides": {"list": {"i": ["1", "1", "1", "1"]}}, "use_cudnn_on_gpu": {"b": true}, "T": {"type": "DT_FLOAT"}, "explicit_paddings": {"list": {}}, "dilations": {"list": {"i": ["1", "1", "1", "1"]}}}}, {"name": "StatefulPartitionedCall/mobile_net_1/inverted_bottleneck_block_31/add/ArithmeticOptimizer/AddOpsRewrite_Leaf_1_add", "op": "AddN", "input": ["StatefulPartitionedCall/mobile_net_1/inverted_bottleneck_block_31/batch_normalization_2/batchnorm/mul_1", "StatefulPartitionedCall/mobile_net_1/inverted_bottleneck_block_30/batch_normalization_2/batchnorm/add_1"], "attr": {"N": {"i": "2"}, "T": {"type": "DT_FLOAT"}, "_grappler_ArithmeticOptimizer_AddOpsRewriteStage": {"b": true}}}, {"name": "StatefulPartitionedCall/mobile_net_1/inverted_bottleneck_block_31/add/ArithmeticOptimizer/AddOpsRewrite_add", "op": "AddV2", "input": ["StatefulPartitionedCall/mobile_net_1/inverted_bottleneck_block_31/batch_normalization_2/batchnorm/sub", "StatefulPartitionedCall/mobile_net_1/inverted_bottleneck_block_31/add/ArithmeticOptimizer/AddOpsRewrite_Leaf_1_add"], "attr": {"T": {"type": "DT_FLOAT"}, "_grappler_ArithmeticOptimizer_AddOpsRewriteStage": {"b": true}}}, {"name": "StatefulPartitionedCall/mobile_net_1/inverted_bottleneck_block_32/activation/Relu6", "op": "_FusedConv2D", "input": ["StatefulPartitionedCall/mobile_net_1/inverted_bottleneck_block_31/add/ArithmeticOptimizer/AddOpsRewrite_add", "StatefulPartitionedCall/mobile_net_1/inverted_bottleneck_block_32/conv2d/Conv2D/merged_input", "StatefulPartitionedCall/mobile_net_1/inverted_bottleneck_block_32/batch_normalization/batchnorm/sub"], "device": "/device:CPU:0", "attr": {"num_host_args": {"i": "0"}, "data_format": {"s": "TkhXQw=="}, "filter_format": {"s": "SFdJTw=="}, "fused_ops": {"list": {"s": ["Qmlhc0FkZA==", "UmVsdTY="]}}, "num_args": {"i": "1"}, "strides": {"list": {"i": ["1", "1", "1", "1"]}}, "TArgs": {"list": {"type": ["DT_FLOAT"]}}, "padding": {"s": "U0FNRQ=="}, "use_cudnn_on_gpu": {"b": true}, "leakyrelu_alpha": {"f": 0.2}, "epsilon": {"f": 0.0}, "T": {"type": "DT_FLOAT"}, "explicit_paddings": {"list": {}}, "dilations": {"list": {"i": ["1", "1", "1", "1"]}}}}, {"name": "StatefulPartitionedCall/mobile_net_1/inverted_bottleneck_block_32/depthwise_conv2d/depthwise/SpaceToBatchND", "op": "SpaceToBatchND", "input": ["StatefulPartitionedCall/mobile_net_1/inverted_bottleneck_block_32/activation/Relu6", "StatefulPartitionedCall/mobile_net_1/inverted_bottleneck_block_32/depthwise_conv2d/depthwise/SpaceToBatchND/block_shape", "StatefulPartitionedCall/mobile_net_1/inverted_bottleneck_block_32/depthwise_conv2d/depthwise/SpaceToBatchND/paddings"], "attr": {"Tpaddings": {"type": "DT_INT32"}, "Tblock_shape": {"type": "DT_INT32"}, "T": {"type": "DT_FLOAT"}}}, {"name": "StatefulPartitionedCall/mobile_net_1/inverted_bottleneck_block_32/depthwise_conv2d/depthwise", "op": "DepthwiseConv2dNative", "input": ["StatefulPartitionedCall/mobile_net_1/inverted_bottleneck_block_32/depthwise_conv2d/depthwise/SpaceToBatchND", "StatefulPartitionedCall/mobile_net_1/inverted_bottleneck_block_32/depthwise_conv2d/depthwise/ReadVariableOp"], "attr": {"padding": {"s": "VkFMSUQ="}, "data_format": {"s": "TkhXQw=="}, "T": {"type": "DT_FLOAT"}, "explicit_paddings": {"list": {}}, "dilations": {"list": {"i": ["1", "1", "1", "1"]}}, "strides": {"list": {"i": ["1", "1", "1", "1"]}}}}, {"name": "StatefulPartitionedCall/mobile_net_1/inverted_bottleneck_block_32/depthwise_conv2d/depthwise/BatchToSpaceND", "op": "BatchToSpaceND", "input": ["StatefulPartitionedCall/mobile_net_1/inverted_bottleneck_block_32/depthwise_conv2d/depthwise", "StatefulPartitionedCall/mobile_net_1/inverted_bottleneck_block_32/depthwise_conv2d/depthwise/BatchToSpaceND/block_shape", "StatefulPartitionedCall/mobile_net_1/inverted_bottleneck_block_32/depthwise_conv2d/depthwise/BatchToSpaceND/crops"], "attr": {"Tblock_shape": {"type": "DT_INT32"}, "Tcrops": {"type": "DT_INT32"}, "T": {"type": "DT_FLOAT"}}}, {"name": "StatefulPartitionedCall/mobile_net_1/inverted_bottleneck_block_32/batch_normalization_1/batchnorm/mul_1", "op": "Mul", "input": ["StatefulPartitionedCall/mobile_net_1/inverted_bottleneck_block_32/depthwise_conv2d/depthwise/BatchToSpaceND", "StatefulPartitionedCall/mobile_net_1/inverted_bottleneck_block_32/batch_normalization_1/batchnorm/mul"], "attr": {"T": {"type": "DT_FLOAT"}}}, {"name": "StatefulPartitionedCall/mobile_net_1/inverted_bottleneck_block_32/batch_normalization_1/batchnorm/add_1", "op": "AddV2", "input": ["StatefulPartitionedCall/mobile_net_1/inverted_bottleneck_block_32/batch_normalization_1/batchnorm/mul_1", "StatefulPartitionedCall/mobile_net_1/inverted_bottleneck_block_32/batch_normalization_1/batchnorm/sub"], "attr": {"T": {"type": "DT_FLOAT"}}}, {"name": "StatefulPartitionedCall/mobile_net_1/inverted_bottleneck_block_32/activation_1/Relu6", "op": "Relu6", "input": ["StatefulPartitionedCall/mobile_net_1/inverted_bottleneck_block_32/batch_normalization_1/batchnorm/add_1"], "attr": {"T": {"type": "DT_FLOAT"}}}, {"name": "StatefulPartitionedCall/mobile_net_1/inverted_bottleneck_block_32/batch_normalization_2/batchnorm/mul_1", "op": "Conv2D", "input": ["StatefulPartitionedCall/mobile_net_1/inverted_bottleneck_block_32/activation_1/Relu6", "StatefulPartitionedCall/mobile_net_1/inverted_bottleneck_block_32/conv2d_1/Conv2D/merged_input"], "device": "/device:CPU:0", "attr": {"padding": {"s": "U0FNRQ=="}, "data_format": {"s": "TkhXQw=="}, "strides": {"list": {"i": ["1", "1", "1", "1"]}}, "use_cudnn_on_gpu": {"b": true}, "T": {"type": "DT_FLOAT"}, "explicit_paddings": {"list": {}}, "dilations": {"list": {"i": ["1", "1", "1", "1"]}}}}, {"name": "StatefulPartitionedCall/mobile_net_1/inverted_bottleneck_block_32/add/ArithmeticOptimizer/AddOpsRewrite_Leaf_1_add", "op": "AddN", "input": ["StatefulPartitionedCall/mobile_net_1/inverted_bottleneck_block_32/batch_normalization_2/batchnorm/mul_1", "StatefulPartitionedCall/mobile_net_1/inverted_bottleneck_block_31/add/ArithmeticOptimizer/AddOpsRewrite_add"], "attr": {"N": {"i": "2"}, "T": {"type": "DT_FLOAT"}, "_grappler_ArithmeticOptimizer_AddOpsRewriteStage": {"b": true}}}, {"name": "StatefulPartitionedCall/mobile_net_1/inverted_bottleneck_block_32/add/ArithmeticOptimizer/AddOpsRewrite_add", "op": "AddV2", "input": ["StatefulPartitionedCall/mobile_net_1/inverted_bottleneck_block_32/batch_normalization_2/batchnorm/sub", "StatefulPartitionedCall/mobile_net_1/inverted_bottleneck_block_32/add/ArithmeticOptimizer/AddOpsRewrite_Leaf_1_add"], "attr": {"T": {"type": "DT_FLOAT"}, "_grappler_ArithmeticOptimizer_AddOpsRewriteStage": {"b": true}}}, {"name": "StatefulPartitionedCall/mobile_net_1/inverted_bottleneck_block_33/activation/Relu6", "op": "_FusedConv2D", "input": ["StatefulPartitionedCall/mobile_net_1/inverted_bottleneck_block_32/add/ArithmeticOptimizer/AddOpsRewrite_add", "StatefulPartitionedCall/mobile_net_1/inverted_bottleneck_block_33/conv2d/Conv2D/merged_input", "StatefulPartitionedCall/mobile_net_1/inverted_bottleneck_block_33/batch_normalization/batchnorm/sub"], "device": "/device:CPU:0", "attr": {"num_host_args": {"i": "0"}, "data_format": {"s": "TkhXQw=="}, "filter_format": {"s": "SFdJTw=="}, "fused_ops": {"list": {"s": ["Qmlhc0FkZA==", "UmVsdTY="]}}, "num_args": {"i": "1"}, "strides": {"list": {"i": ["1", "1", "1", "1"]}}, "TArgs": {"list": {"type": ["DT_FLOAT"]}}, "padding": {"s": "U0FNRQ=="}, "use_cudnn_on_gpu": {"b": true}, "leakyrelu_alpha": {"f": 0.2}, "epsilon": {"f": 0.0}, "T": {"type": "DT_FLOAT"}, "explicit_paddings": {"list": {}}, "dilations": {"list": {"i": ["1", "1", "1", "1"]}}}}, {"name": "StatefulPartitionedCall/mobile_net_1/inverted_bottleneck_block_33/depthwise_conv2d/depthwise/SpaceToBatchND", "op": "SpaceToBatchND", "input": ["StatefulPartitionedCall/mobile_net_1/inverted_bottleneck_block_33/activation/Relu6", "StatefulPartitionedCall/mobile_net_1/inverted_bottleneck_block_33/depthwise_conv2d/depthwise/SpaceToBatchND/block_shape", "StatefulPartitionedCall/mobile_net_1/inverted_bottleneck_block_33/depthwise_conv2d/depthwise/SpaceToBatchND/paddings"], "attr": {"Tpaddings": {"type": "DT_INT32"}, "Tblock_shape": {"type": "DT_INT32"}, "T": {"type": "DT_FLOAT"}}}, {"name": "StatefulPartitionedCall/mobile_net_1/inverted_bottleneck_block_33/depthwise_conv2d/depthwise", "op": "DepthwiseConv2dNative", "input": ["StatefulPartitionedCall/mobile_net_1/inverted_bottleneck_block_33/depthwise_conv2d/depthwise/SpaceToBatchND", "StatefulPartitionedCall/mobile_net_1/inverted_bottleneck_block_33/depthwise_conv2d/depthwise/ReadVariableOp"], "attr": {"padding": {"s": "VkFMSUQ="}, "data_format": {"s": "TkhXQw=="}, "T": {"type": "DT_FLOAT"}, "explicit_paddings": {"list": {}}, "dilations": {"list": {"i": ["1", "1", "1", "1"]}}, "strides": {"list": {"i": ["1", "1", "1", "1"]}}}}, {"name": "StatefulPartitionedCall/mobile_net_1/inverted_bottleneck_block_33/depthwise_conv2d/depthwise/BatchToSpaceND", "op": "BatchToSpaceND", "input": ["StatefulPartitionedCall/mobile_net_1/inverted_bottleneck_block_33/depthwise_conv2d/depthwise", "StatefulPartitionedCall/mobile_net_1/inverted_bottleneck_block_33/depthwise_conv2d/depthwise/BatchToSpaceND/block_shape", "StatefulPartitionedCall/mobile_net_1/inverted_bottleneck_block_33/depthwise_conv2d/depthwise/BatchToSpaceND/crops"], "attr": {"Tblock_shape": {"type": "DT_INT32"}, "Tcrops": {"type": "DT_INT32"}, "T": {"type": "DT_FLOAT"}}}, {"name": "StatefulPartitionedCall/mobile_net_1/inverted_bottleneck_block_33/batch_normalization_1/batchnorm/mul_1", "op": "Mul", "input": ["StatefulPartitionedCall/mobile_net_1/inverted_bottleneck_block_33/depthwise_conv2d/depthwise/BatchToSpaceND", "StatefulPartitionedCall/mobile_net_1/inverted_bottleneck_block_33/batch_normalization_1/batchnorm/mul"], "attr": {"T": {"type": "DT_FLOAT"}}}, {"name": "StatefulPartitionedCall/mobile_net_1/inverted_bottleneck_block_33/batch_normalization_1/batchnorm/add_1", "op": "AddV2", "input": ["StatefulPartitionedCall/mobile_net_1/inverted_bottleneck_block_33/batch_normalization_1/batchnorm/mul_1", "StatefulPartitionedCall/mobile_net_1/inverted_bottleneck_block_33/batch_normalization_1/batchnorm/sub"], "attr": {"T": {"type": "DT_FLOAT"}}}, {"name": "StatefulPartitionedCall/mobile_net_1/inverted_bottleneck_block_33/activation_1/Relu6", "op": "Relu6", "input": ["StatefulPartitionedCall/mobile_net_1/inverted_bottleneck_block_33/batch_normalization_1/batchnorm/add_1"], "attr": {"T": {"type": "DT_FLOAT"}}}, {"name": "StatefulPartitionedCall/mobile_net_1/inverted_bottleneck_block_33/batch_normalization_2/batchnorm/add_1", "op": "_FusedConv2D", "input": ["StatefulPartitionedCall/mobile_net_1/inverted_bottleneck_block_33/activation_1/Relu6", "StatefulPartitionedCall/mobile_net_1/inverted_bottleneck_block_33/conv2d_1/Conv2D/merged_input", "StatefulPartitionedCall/mobile_net_1/inverted_bottleneck_block_33/batch_normalization_2/batchnorm/sub"], "device": "/device:CPU:0", "attr": {"num_host_args": {"i": "0"}, "data_format": {"s": "TkhXQw=="}, "filter_format": {"s": "SFdJTw=="}, "fused_ops": {"list": {"s": ["Qmlhc0FkZA=="]}}, "num_args": {"i": "1"}, "strides": {"list": {"i": ["1", "1", "1", "1"]}}, "TArgs": {"list": {"type": ["DT_FLOAT"]}}, "padding": {"s": "U0FNRQ=="}, "use_cudnn_on_gpu": {"b": true}, "leakyrelu_alpha": {"f": 0.2}, "epsilon": {"f": 0.0}, "T": {"type": "DT_FLOAT"}, "explicit_paddings": {"list": {}}, "dilations": {"list": {"i": ["1", "1", "1", "1"]}}}}, {"name": "StatefulPartitionedCall/aspp_1/spatial_pyramid_pooling/sequential/activation/Relu", "op": "_FusedConv2D", "input": ["StatefulPartitionedCall/mobile_net_1/inverted_bottleneck_block_33/batch_normalization_2/batchnorm/add_1", "StatefulPartitionedCall/aspp_1/spatial_pyramid_pooling/sequential/conv2d/Conv2D/merged_input", "StatefulPartitionedCall/aspp_1/spatial_pyramid_pooling/sequential/batch_normalization/batchnorm/sub"], "device": "/device:CPU:0", "attr": {"num_host_args": {"i": "0"}, "data_format": {"s": "TkhXQw=="}, "filter_format": {"s": "SFdJTw=="}, "strides": {"list": {"i": ["1", "1", "1", "1"]}}, "num_args": {"i": "1"}, "fused_ops": {"list": {"s": ["Qmlhc0FkZA==", "UmVsdQ=="]}}, "TArgs": {"list": {"type": ["DT_FLOAT"]}}, "padding": {"s": "VkFMSUQ="}, "use_cudnn_on_gpu": {"b": true}, "leakyrelu_alpha": {"f": 0.2}, "epsilon": {"f": 0.0}, "T": {"type": "DT_FLOAT"}, "explicit_paddings": {"list": {}}, "dilations": {"list": {"i": ["1", "1", "1", "1"]}}}}, {"name": "StatefulPartitionedCall/aspp_1/spatial_pyramid_pooling/sequential_1/global_average_pooling2d/Mean", "op": "Mean", "input": ["StatefulPartitionedCall/mobile_net_1/inverted_bottleneck_block_33/batch_normalization_2/batchnorm/add_1", "StatefulPartitionedCall/aspp_1/spatial_pyramid_pooling/sequential_1/global_average_pooling2d/Mean/reduction_indices"], "attr": {"Tidx": {"type": "DT_INT32"}, "T": {"type": "DT_FLOAT"}, "keep_dims": {"b": false}}}, {"name": "StatefulPartitionedCall/aspp_1/spatial_pyramid_pooling/sequential_1/reshape/Reshape", "op": "Reshape", "input": ["StatefulPartitionedCall/aspp_1/spatial_pyramid_pooling/sequential_1/global_average_pooling2d/Mean", "StatefulPartitionedCall/aspp_1/spatial_pyramid_pooling/sequential_1/reshape/Reshape/shape"], "attr": {"T": {"type": "DT_FLOAT"}, "Tshape": {"type": "DT_INT32"}}}, {"name": "StatefulPartitionedCall/aspp_1/spatial_pyramid_pooling/sequential_1/sequential_2/activation_1/Relu", "op": "_FusedConv2D", "input": ["StatefulPartitionedCall/aspp_1/spatial_pyramid_pooling/sequential_1/reshape/Reshape", "StatefulPartitionedCall/aspp_1/spatial_pyramid_pooling/sequential_1/sequential_2/conv2d_1/Conv2D/merged_input", "StatefulPartitionedCall/aspp_1/spatial_pyramid_pooling/sequential_1/sequential_2/batch_normalization_1/batchnorm/sub"], "device": "/device:CPU:0", "attr": {"num_host_args": {"i": "0"}, "data_format": {"s": "TkhXQw=="}, "filter_format": {"s": "SFdJTw=="}, "strides": {"list": {"i": ["1", "1", "1", "1"]}}, "num_args": {"i": "1"}, "fused_ops": {"list": {"s": ["Qmlhc0FkZA==", "UmVsdQ=="]}}, "TArgs": {"list": {"type": ["DT_FLOAT"]}}, "padding": {"s": "VkFMSUQ="}, "use_cudnn_on_gpu": {"b": true}, "leakyrelu_alpha": {"f": 0.2}, "epsilon": {"f": 0.0}, "T": {"type": "DT_FLOAT"}, "explicit_paddings": {"list": {}}, "dilations": {"list": {"i": ["1", "1", "1", "1"]}}}}, {"name": "StatefulPartitionedCall/aspp_1/spatial_pyramid_pooling/resize/ResizeBilinear", "op": "ResizeBilinear", "input": ["StatefulPartitionedCall/aspp_1/spatial_pyramid_pooling/sequential_1/sequential_2/activation_1/Relu", "StatefulPartitionedCall/aspp_1/spatial_pyramid_pooling/strided_slice"], "attr": {"T": {"type": "DT_FLOAT"}, "align_corners": {"b": false}, "half_pixel_centers": {"b": true}}}, {"name": "StatefulPartitionedCall/aspp_1/spatial_pyramid_pooling/concat", "op": "ConcatV2", "input": ["StatefulPartitionedCall/aspp_1/spatial_pyramid_pooling/sequential/activation/Relu", "StatefulPartitionedCall/aspp_1/spatial_pyramid_pooling/resize/ResizeBilinear", "StatefulPartitionedCall/aspp_1/spatial_pyramid_pooling/concat/axis"], "attr": {"N": {"i": "2"}, "Tidx": {"type": "DT_INT32"}, "T": {"type": "DT_FLOAT"}}}, {"name": "StatefulPartitionedCall/aspp_1/spatial_pyramid_pooling/sequential_3/activation_2/Relu", "op": "_FusedConv2D", "input": ["StatefulPartitionedCall/aspp_1/spatial_pyramid_pooling/concat", "StatefulPartitionedCall/aspp_1/spatial_pyramid_pooling/sequential_3/conv2d_2/Conv2D/merged_input", "StatefulPartitionedCall/aspp_1/spatial_pyramid_pooling/sequential_3/batch_normalization_2/batchnorm/sub"], "device": "/device:CPU:0", "attr": {"num_host_args": {"i": "0"}, "data_format": {"s": "TkhXQw=="}, "filter_format": {"s": "SFdJTw=="}, "fused_ops": {"list": {"s": ["Qmlhc0FkZA==", "UmVsdQ=="]}}, "num_args": {"i": "1"}, "strides": {"list": {"i": ["1", "1", "1", "1"]}}, "TArgs": {"list": {"type": ["DT_FLOAT"]}}, "padding": {"s": "VkFMSUQ="}, "use_cudnn_on_gpu": {"b": true}, "leakyrelu_alpha": {"f": 0.2}, "epsilon": {"f": 0.0}, "T": {"type": "DT_FLOAT"}, "explicit_paddings": {"list": {}}, "dilations": {"list": {"i": ["1", "1", "1", "1"]}}}}, {"name": "StatefulPartitionedCall/segmentation_head_1/segmentation_output/BiasAdd", "op": "_FusedConv2D", "input": ["StatefulPartitionedCall/aspp_1/spatial_pyramid_pooling/sequential_3/activation_2/Relu", "StatefulPartitionedCall/segmentation_head_1/segmentation_output/Conv2D/ReadVariableOp", "StatefulPartitionedCall/segmentation_head_1/segmentation_output/BiasAdd/ReadVariableOp"], "device": "/device:CPU:0", "attr": {"num_host_args": {"i": "0"}, "data_format": {"s": "TkhXQw=="}, "filter_format": {"s": "SFdJTw=="}, "fused_ops": {"list": {"s": ["Qmlhc0FkZA=="]}}, "num_args": {"i": "1"}, "strides": {"list": {"i": ["1", "1", "1", "1"]}}, "TArgs": {"list": {"type": ["DT_FLOAT"]}}, "padding": {"s": "U0FNRQ=="}, "use_cudnn_on_gpu": {"b": true}, "leakyrelu_alpha": {"f": 0.2}, "epsilon": {"f": 0.0}, "T": {"type": "DT_FLOAT"}, "explicit_paddings": {"list": {}}, "dilations": {"list": {"i": ["1", "1", "1", "1"]}}}}, {"name": "StatefulPartitionedCall/resize/ResizeBilinear", "op": "ResizeBilinear", "input": ["StatefulPartitionedCall/segmentation_head_1/segmentation_output/BiasAdd", "StatefulPartitionedCall/resize/size"], "attr": {"T": {"type": "DT_FLOAT"}, "align_corners": {"b": false}, "half_pixel_centers": {"b": true}}}, {"name": "Identity_1", "op": "Identity", "input": ["StatefulPartitionedCall/resize/ResizeBilinear"], "attr": {"T": {"type": "DT_FLOAT"}}}], "library": {}, "versions": {"producer": 1645}}, "weightsManifest": [{"paths": ["group1-shard1of3.bin", "group1-shard2of3.bin", "group1-shard3of3.bin"], "weights": [{"name": "StatefulPartitionedCall/map/TensorArrayV2_2/element_shape", "shape": [2], "dtype": "int32"}, {"name": "StatefulPartitionedCall/map/TensorArrayV2_2/num_elements", "shape": [], "dtype": "int32"}, {"name": "StatefulPartitionedCall/map/TensorArrayV2Stack_1/TensorListStack/element_shape", "shape": [2], "dtype": "int32"}, {"name": "StatefulPartitionedCall/aspp_1/spatial_pyramid_pooling/sequential/conv2d/Conv2D/merged_input", "shape": [1, 1, 320, 256], "dtype": "float32"}, {"name": "StatefulPartitionedCall/aspp_1/spatial_pyramid_pooling/sequential/batch_normalization/batchnorm/sub", "shape": [256], "dtype": "float32"}, {"name": "StatefulPartitionedCall/mobile_net_1/inverted_bottleneck_block_32/batch_normalization_2/batchnorm/sub", "shape": [160], "dtype": "float32"}, {"name": "StatefulPartitionedCall/mobile_net_1/inverted_bottleneck_block_32/conv2d/Conv2D/merged_input", "shape": [1, 1, 160, 960], "dtype": "float32"}, {"name": "StatefulPartitionedCall/mobile_net_1/inverted_bottleneck_block_32/batch_normalization/batchnorm/sub", "shape": [960], "dtype": "float32"}, {"name": "StatefulPartitionedCall/mobile_net_1/inverted_bottleneck_block_32/depthwise_conv2d/depthwise/SpaceToBatchND/block_shape", "shape": [2], "dtype": "int32"}, {"name": "StatefulPartitionedCall/mobile_net_1/inverted_bottleneck_block_32/depthwise_conv2d/depthwise/SpaceToBatchND/paddings", "shape": [2, 2], "dtype": "int32"}, {"name": "StatefulPartitionedCall/mobile_net_1/inverted_bottleneck_block_32/depthwise_conv2d/depthwise/ReadVariableOp", "shape": [3, 3, 960, 1], "dtype": "float32"}, {"name": "StatefulPartitionedCall/mobile_net_1/inverted_bottleneck_block_32/depthwise_conv2d/depthwise/BatchToSpaceND/block_shape", "shape": [2], "dtype": "int32"}, {"name": "StatefulPartitionedCall/mobile_net_1/inverted_bottleneck_block_32/depthwise_conv2d/depthwise/BatchToSpaceND/crops", "shape": [2, 2], "dtype": "int32"}, {"name": "StatefulPartitionedCall/mobile_net_1/inverted_bottleneck_block_32/batch_normalization_1/batchnorm/mul", "shape": [960], "dtype": "float32"}, {"name": "StatefulPartitionedCall/mobile_net_1/inverted_bottleneck_block_32/batch_normalization_1/batchnorm/sub", "shape": [960], "dtype": "float32"}, {"name": "StatefulPartitionedCall/mobile_net_1/inverted_bottleneck_block_32/conv2d_1/Conv2D/merged_input", "shape": [1, 1, 960, 160], "dtype": "float32"}, {"name": "StatefulPartitionedCall/mobile_net_1/inverted_bottleneck_block_31/batch_normalization_2/batchnorm/sub", "shape": [160], "dtype": "float32"}, {"name": "StatefulPartitionedCall/mobile_net_1/inverted_bottleneck_block_31/conv2d/Conv2D/merged_input", "shape": [1, 1, 160, 960], "dtype": "float32"}, {"name": "StatefulPartitionedCall/mobile_net_1/inverted_bottleneck_block_31/batch_normalization/batchnorm/sub", "shape": [960], "dtype": "float32"}, {"name": "StatefulPartitionedCall/mobile_net_1/inverted_bottleneck_block_31/depthwise_conv2d/depthwise/SpaceToBatchND/block_shape", "shape": [2], "dtype": "int32"}, {"name": "StatefulPartitionedCall/mobile_net_1/inverted_bottleneck_block_31/depthwise_conv2d/depthwise/SpaceToBatchND/paddings", "shape": [2, 2], "dtype": "int32"}, {"name": "StatefulPartitionedCall/mobile_net_1/inverted_bottleneck_block_31/depthwise_conv2d/depthwise/ReadVariableOp", "shape": [3, 3, 960, 1], "dtype": "float32"}, {"name": "StatefulPartitionedCall/mobile_net_1/inverted_bottleneck_block_31/depthwise_conv2d/depthwise/BatchToSpaceND/block_shape", "shape": [2], "dtype": "int32"}, {"name": "StatefulPartitionedCall/mobile_net_1/inverted_bottleneck_block_31/depthwise_conv2d/depthwise/BatchToSpaceND/crops", "shape": [2, 2], "dtype": "int32"}, {"name": "StatefulPartitionedCall/mobile_net_1/inverted_bottleneck_block_31/batch_normalization_1/batchnorm/mul", "shape": [960], "dtype": "float32"}, {"name": "StatefulPartitionedCall/mobile_net_1/inverted_bottleneck_block_31/batch_normalization_1/batchnorm/sub", "shape": [960], "dtype": "float32"}, {"name": "StatefulPartitionedCall/mobile_net_1/inverted_bottleneck_block_31/conv2d_1/Conv2D/merged_input", "shape": [1, 1, 960, 160], "dtype": "float32"}, {"name": "StatefulPartitionedCall/mobile_net_1/inverted_bottleneck_block_29/batch_normalization_2/batchnorm/sub", "shape": [96], "dtype": "float32"}, {"name": "StatefulPartitionedCall/mobile_net_1/inverted_bottleneck_block_29/conv2d/Conv2D/merged_input", "shape": [1, 1, 96, 576], "dtype": "float32"}, {"name": "StatefulPartitionedCall/mobile_net_1/inverted_bottleneck_block_29/batch_normalization/batchnorm/sub", "shape": [576], "dtype": "float32"}, {"name": "StatefulPartitionedCall/mobile_net_1/inverted_bottleneck_block_29/depthwise_conv2d/depthwise/ReadVariableOp", "shape": [3, 3, 576, 1], "dtype": "float32"}, {"name": "StatefulPartitionedCall/mobile_net_1/inverted_bottleneck_block_29/batch_normalization_1/batchnorm/mul", "shape": [576], "dtype": "float32"}, {"name": "StatefulPartitionedCall/mobile_net_1/inverted_bottleneck_block_29/batch_normalization_1/batchnorm/sub", "shape": [576], "dtype": "float32"}, {"name": "StatefulPartitionedCall/mobile_net_1/inverted_bottleneck_block_29/conv2d_1/Conv2D/merged_input", "shape": [1, 1, 576, 96], "dtype": "float32"}, {"name": "StatefulPartitionedCall/mobile_net_1/inverted_bottleneck_block_28/batch_normalization_2/batchnorm/sub", "shape": [96], "dtype": "float32"}, {"name": "StatefulPartitionedCall/mobile_net_1/inverted_bottleneck_block_28/conv2d/Conv2D/merged_input", "shape": [1, 1, 96, 576], "dtype": "float32"}, {"name": "StatefulPartitionedCall/mobile_net_1/inverted_bottleneck_block_28/batch_normalization/batchnorm/sub", "shape": [576], "dtype": "float32"}, {"name": "StatefulPartitionedCall/mobile_net_1/inverted_bottleneck_block_28/depthwise_conv2d/depthwise/ReadVariableOp", "shape": [3, 3, 576, 1], "dtype": "float32"}, {"name": "StatefulPartitionedCall/mobile_net_1/inverted_bottleneck_block_28/batch_normalization_1/batchnorm/mul", "shape": [576], "dtype": "float32"}, {"name": "StatefulPartitionedCall/mobile_net_1/inverted_bottleneck_block_28/batch_normalization_1/batchnorm/sub", "shape": [576], "dtype": "float32"}, {"name": "StatefulPartitionedCall/mobile_net_1/inverted_bottleneck_block_28/conv2d_1/Conv2D/merged_input", "shape": [1, 1, 576, 96], "dtype": "float32"}, {"name": "StatefulPartitionedCall/mobile_net_1/inverted_bottleneck_block_26/batch_normalization_2/batchnorm/sub", "shape": [64], "dtype": "float32"}, {"name": "StatefulPartitionedCall/mobile_net_1/inverted_bottleneck_block_26/conv2d/Conv2D/merged_input", "shape": [1, 1, 64, 384], "dtype": "float32"}, {"name": "StatefulPartitionedCall/mobile_net_1/inverted_bottleneck_block_26/batch_normalization/batchnorm/sub", "shape": [384], "dtype": "float32"}, {"name": "StatefulPartitionedCall/mobile_net_1/inverted_bottleneck_block_26/depthwise_conv2d/depthwise/ReadVariableOp", "shape": [3, 3, 384, 1], "dtype": "float32"}, {"name": "StatefulPartitionedCall/mobile_net_1/inverted_bottleneck_block_26/batch_normalization_1/batchnorm/mul", "shape": [384], "dtype": "float32"}, {"name": "StatefulPartitionedCall/mobile_net_1/inverted_bottleneck_block_26/batch_normalization_1/batchnorm/sub", "shape": [384], "dtype": "float32"}, {"name": "StatefulPartitionedCall/mobile_net_1/inverted_bottleneck_block_26/conv2d_1/Conv2D/merged_input", "shape": [1, 1, 384, 64], "dtype": "float32"}, {"name": "StatefulPartitionedCall/mobile_net_1/inverted_bottleneck_block_25/batch_normalization_2/batchnorm/sub", "shape": [64], "dtype": "float32"}, {"name": "StatefulPartitionedCall/mobile_net_1/inverted_bottleneck_block_25/conv2d/Conv2D/merged_input", "shape": [1, 1, 64, 384], "dtype": "float32"}, {"name": "StatefulPartitionedCall/mobile_net_1/inverted_bottleneck_block_25/batch_normalization/batchnorm/sub", "shape": [384], "dtype": "float32"}, {"name": "StatefulPartitionedCall/mobile_net_1/inverted_bottleneck_block_25/depthwise_conv2d/depthwise/ReadVariableOp", "shape": [3, 3, 384, 1], "dtype": "float32"}, {"name": "StatefulPartitionedCall/mobile_net_1/inverted_bottleneck_block_25/batch_normalization_1/batchnorm/mul", "shape": [384], "dtype": "float32"}, {"name": "StatefulPartitionedCall/mobile_net_1/inverted_bottleneck_block_25/batch_normalization_1/batchnorm/sub", "shape": [384], "dtype": "float32"}, {"name": "StatefulPartitionedCall/mobile_net_1/inverted_bottleneck_block_25/conv2d_1/Conv2D/merged_input", "shape": [1, 1, 384, 64], "dtype": "float32"}, {"name": "StatefulPartitionedCall/mobile_net_1/inverted_bottleneck_block_24/batch_normalization_2/batchnorm/sub", "shape": [64], "dtype": "float32"}, {"name": "StatefulPartitionedCall/mobile_net_1/inverted_bottleneck_block_24/conv2d/Conv2D/merged_input", "shape": [1, 1, 64, 384], "dtype": "float32"}, {"name": "StatefulPartitionedCall/mobile_net_1/inverted_bottleneck_block_24/batch_normalization/batchnorm/sub", "shape": [384], "dtype": "float32"}, {"name": "StatefulPartitionedCall/mobile_net_1/inverted_bottleneck_block_24/depthwise_conv2d/depthwise/ReadVariableOp", "shape": [3, 3, 384, 1], "dtype": "float32"}, {"name": "StatefulPartitionedCall/mobile_net_1/inverted_bottleneck_block_24/batch_normalization_1/batchnorm/mul", "shape": [384], "dtype": "float32"}, {"name": "StatefulPartitionedCall/mobile_net_1/inverted_bottleneck_block_24/batch_normalization_1/batchnorm/sub", "shape": [384], "dtype": "float32"}, {"name": "StatefulPartitionedCall/mobile_net_1/inverted_bottleneck_block_24/conv2d_1/Conv2D/merged_input", "shape": [1, 1, 384, 64], "dtype": "float32"}, {"name": "StatefulPartitionedCall/mobile_net_1/inverted_bottleneck_block_22/batch_normalization_2/batchnorm/sub", "shape": [32], "dtype": "float32"}, {"name": "StatefulPartitionedCall/mobile_net_1/inverted_bottleneck_block_22/conv2d/Conv2D/merged_input", "shape": [1, 1, 32, 192], "dtype": "float32"}, {"name": "StatefulPartitionedCall/mobile_net_1/inverted_bottleneck_block_22/batch_normalization/batchnorm/sub", "shape": [192], "dtype": "float32"}, {"name": "StatefulPartitionedCall/mobile_net_1/inverted_bottleneck_block_22/depthwise_conv2d/depthwise/ReadVariableOp", "shape": [3, 3, 192, 1], "dtype": "float32"}, {"name": "StatefulPartitionedCall/mobile_net_1/inverted_bottleneck_block_22/batch_normalization_1/batchnorm/mul", "shape": [192], "dtype": "float32"}, {"name": "StatefulPartitionedCall/mobile_net_1/inverted_bottleneck_block_22/batch_normalization_1/batchnorm/sub", "shape": [192], "dtype": "float32"}, {"name": "StatefulPartitionedCall/mobile_net_1/inverted_bottleneck_block_22/conv2d_1/Conv2D/merged_input", "shape": [1, 1, 192, 32], "dtype": "float32"}, {"name": "StatefulPartitionedCall/mobile_net_1/inverted_bottleneck_block_21/batch_normalization_2/batchnorm/sub", "shape": [32], "dtype": "float32"}, {"name": "StatefulPartitionedCall/mobile_net_1/inverted_bottleneck_block_21/conv2d/Conv2D/merged_input", "shape": [1, 1, 32, 192], "dtype": "float32"}, {"name": "StatefulPartitionedCall/mobile_net_1/inverted_bottleneck_block_21/batch_normalization/batchnorm/sub", "shape": [192], "dtype": "float32"}, {"name": "StatefulPartitionedCall/mobile_net_1/inverted_bottleneck_block_21/depthwise_conv2d/depthwise/ReadVariableOp", "shape": [3, 3, 192, 1], "dtype": "float32"}, {"name": "StatefulPartitionedCall/mobile_net_1/inverted_bottleneck_block_21/batch_normalization_1/batchnorm/mul", "shape": [192], "dtype": "float32"}, {"name": "StatefulPartitionedCall/mobile_net_1/inverted_bottleneck_block_21/batch_normalization_1/batchnorm/sub", "shape": [192], "dtype": "float32"}, {"name": "StatefulPartitionedCall/mobile_net_1/inverted_bottleneck_block_21/conv2d_1/Conv2D/merged_input", "shape": [1, 1, 192, 32], "dtype": "float32"}, {"name": "StatefulPartitionedCall/mobile_net_1/inverted_bottleneck_block_19/batch_normalization_2/batchnorm/sub", "shape": [24], "dtype": "float32"}, {"name": "StatefulPartitionedCall/mobile_net_1/inverted_bottleneck_block_19/conv2d/Conv2D/merged_input", "shape": [1, 1, 24, 144], "dtype": "float32"}, {"name": "StatefulPartitionedCall/mobile_net_1/inverted_bottleneck_block_19/batch_normalization/batchnorm/sub", "shape": [144], "dtype": "float32"}, {"name": "StatefulPartitionedCall/mobile_net_1/inverted_bottleneck_block_19/depthwise_conv2d/depthwise/ReadVariableOp", "shape": [3, 3, 144, 1], "dtype": "float32"}, {"name": "StatefulPartitionedCall/mobile_net_1/inverted_bottleneck_block_19/batch_normalization_1/batchnorm/mul", "shape": [144], "dtype": "float32"}, {"name": "StatefulPartitionedCall/mobile_net_1/inverted_bottleneck_block_19/batch_normalization_1/batchnorm/sub", "shape": [144], "dtype": "float32"}, {"name": "StatefulPartitionedCall/mobile_net_1/inverted_bottleneck_block_19/conv2d_1/Conv2D/merged_input", "shape": [1, 1, 144, 24], "dtype": "float32"}, {"name": "StatefulPartitionedCall/map/TensorArrayV2_1/element_shape", "shape": [3], "dtype": "int32"}, {"name": "StatefulPartitionedCall/map/TensorArrayV2_1/num_elements", "shape": [], "dtype": "int32"}, {"name": "StatefulPartitionedCall/map/TensorArrayUnstack/TensorListFromTensor/element_shape", "shape": [3], "dtype": "int32"}, {"name": "StatefulPartitionedCall/map/while/maximum_iterations", "shape": [], "dtype": "int32"}, {"name": "StatefulPartitionedCall/map/Const", "shape": [], "dtype": "int32"}, {"name": "StatefulPartitionedCall/map/while/loop_counter", "shape": [], "dtype": "int32"}, {"name": "StatefulPartitionedCall/map/TensorArrayV2Stack/TensorListStack/element_shape", "shape": [3], "dtype": "int32"}, {"name": "StatefulPartitionedCall/mobile_net_1/conv2dbn_block_2/conv2d/Conv2D/merged_input", "shape": [3, 3, 3, 32], "dtype": "float32"}, {"name": "StatefulPartitionedCall/mobile_net_1/conv2dbn_block_2/batch_normalization/batchnorm/sub", "shape": [32], "dtype": "float32"}, {"name": "StatefulPartitionedCall/aspp_1/spatial_pyramid_pooling/sequential_3/conv2d_2/Conv2D/merged_input", "shape": [1, 1, 512, 256], "dtype": "float32"}, {"name": "StatefulPartitionedCall/mobile_net_1/inverted_bottleneck_block_17/depthwise_conv2d/depthwise/ReadVariableOp", "shape": [3, 3, 32, 1], "dtype": "float32"}, {"name": "StatefulPartitionedCall/mobile_net_1/inverted_bottleneck_block_17/batch_normalization/batchnorm/mul", "shape": [32], "dtype": "float32"}, {"name": "StatefulPartitionedCall/mobile_net_1/inverted_bottleneck_block_17/batch_normalization/batchnorm/sub", "shape": [32], "dtype": "float32"}, {"name": "StatefulPartitionedCall/mobile_net_1/inverted_bottleneck_block_17/conv2d/Conv2D/merged_input", "shape": [1, 1, 32, 16], "dtype": "float32"}, {"name": "StatefulPartitionedCall/mobile_net_1/inverted_bottleneck_block_17/batch_normalization_1/batchnorm/sub", "shape": [16], "dtype": "float32"}, {"name": "StatefulPartitionedCall/mobile_net_1/inverted_bottleneck_block_18/conv2d/Conv2D/merged_input", "shape": [1, 1, 16, 96], "dtype": "float32"}, {"name": "StatefulPartitionedCall/aspp_1/spatial_pyramid_pooling/sequential_3/batch_normalization_2/batchnorm/sub", "shape": [256], "dtype": "float32"}, {"name": "StatefulPartitionedCall/mobile_net_1/inverted_bottleneck_block_18/batch_normalization/batchnorm/sub", "shape": [96], "dtype": "float32"}, {"name": "StatefulPartitionedCall/mobile_net_1/inverted_bottleneck_block_18/depthwise_conv2d/depthwise/ReadVariableOp", "shape": [3, 3, 96, 1], "dtype": "float32"}, {"name": "StatefulPartitionedCall/mobile_net_1/inverted_bottleneck_block_18/batch_normalization_1/batchnorm/mul", "shape": [96], "dtype": "float32"}, {"name": "StatefulPartitionedCall/mobile_net_1/inverted_bottleneck_block_18/batch_normalization_1/batchnorm/sub", "shape": [96], "dtype": "float32"}, {"name": "StatefulPartitionedCall/mobile_net_1/inverted_bottleneck_block_18/conv2d_1/Conv2D/merged_input", "shape": [1, 1, 96, 24], "dtype": "float32"}, {"name": "StatefulPartitionedCall/mobile_net_1/inverted_bottleneck_block_18/batch_normalization_2/batchnorm/sub", "shape": [24], "dtype": "float32"}, {"name": "StatefulPartitionedCall/segmentation_head_1/segmentation_output/Conv2D/ReadVariableOp", "shape": [1, 1, 256, 2], "dtype": "float32"}, {"name": "StatefulPartitionedCall/mobile_net_1/inverted_bottleneck_block_20/conv2d/Conv2D/merged_input", "shape": [1, 1, 24, 144], "dtype": "float32"}, {"name": "StatefulPartitionedCall/segmentation_head_1/segmentation_output/BiasAdd/ReadVariableOp", "shape": [2], "dtype": "float32"}, {"name": "StatefulPartitionedCall/mobile_net_1/inverted_bottleneck_block_20/batch_normalization/batchnorm/sub", "shape": [144], "dtype": "float32"}, {"name": "StatefulPartitionedCall/mobile_net_1/inverted_bottleneck_block_20/depthwise_conv2d/depthwise/ReadVariableOp", "shape": [3, 3, 144, 1], "dtype": "float32"}, {"name": "StatefulPartitionedCall/mobile_net_1/inverted_bottleneck_block_20/batch_normalization_1/batchnorm/mul", "shape": [144], "dtype": "float32"}, {"name": "StatefulPartitionedCall/mobile_net_1/inverted_bottleneck_block_20/batch_normalization_1/batchnorm/sub", "shape": [144], "dtype": "float32"}, {"name": "StatefulPartitionedCall/mobile_net_1/inverted_bottleneck_block_20/conv2d_1/Conv2D/merged_input", "shape": [1, 1, 144, 32], "dtype": "float32"}, {"name": "StatefulPartitionedCall/resize/size", "shape": [2], "dtype": "int32"}, {"name": "StatefulPartitionedCall/mobile_net_1/inverted_bottleneck_block_20/batch_normalization_2/batchnorm/sub", "shape": [32], "dtype": "float32"}, {"name": "StatefulPartitionedCall/mobile_net_1/inverted_bottleneck_block_23/conv2d/Conv2D/merged_input", "shape": [1, 1, 32, 192], "dtype": "float32"}, {"name": "StatefulPartitionedCall/mobile_net_1/inverted_bottleneck_block_23/batch_normalization/batchnorm/sub", "shape": [192], "dtype": "float32"}, {"name": "StatefulPartitionedCall/mobile_net_1/inverted_bottleneck_block_23/depthwise_conv2d/depthwise/ReadVariableOp", "shape": [3, 3, 192, 1], "dtype": "float32"}, {"name": "StatefulPartitionedCall/mobile_net_1/inverted_bottleneck_block_23/batch_normalization_1/batchnorm/mul", "shape": [192], "dtype": "float32"}, {"name": "StatefulPartitionedCall/mobile_net_1/inverted_bottleneck_block_23/batch_normalization_1/batchnorm/sub", "shape": [192], "dtype": "float32"}, {"name": "StatefulPartitionedCall/mobile_net_1/inverted_bottleneck_block_23/conv2d_1/Conv2D/merged_input", "shape": [1, 1, 192, 64], "dtype": "float32"}, {"name": "StatefulPartitionedCall/mobile_net_1/inverted_bottleneck_block_23/batch_normalization_2/batchnorm/sub", "shape": [64], "dtype": "float32"}, {"name": "StatefulPartitionedCall/mobile_net_1/inverted_bottleneck_block_27/conv2d/Conv2D/merged_input", "shape": [1, 1, 64, 384], "dtype": "float32"}, {"name": "StatefulPartitionedCall/mobile_net_1/inverted_bottleneck_block_27/batch_normalization/batchnorm/sub", "shape": [384], "dtype": "float32"}, {"name": "StatefulPartitionedCall/mobile_net_1/inverted_bottleneck_block_27/depthwise_conv2d/depthwise/ReadVariableOp", "shape": [3, 3, 384, 1], "dtype": "float32"}, {"name": "StatefulPartitionedCall/mobile_net_1/inverted_bottleneck_block_27/batch_normalization_1/batchnorm/mul", "shape": [384], "dtype": "float32"}, {"name": "StatefulPartitionedCall/mobile_net_1/inverted_bottleneck_block_27/batch_normalization_1/batchnorm/sub", "shape": [384], "dtype": "float32"}, {"name": "StatefulPartitionedCall/mobile_net_1/inverted_bottleneck_block_27/conv2d_1/Conv2D/merged_input", "shape": [1, 1, 384, 96], "dtype": "float32"}, {"name": "StatefulPartitionedCall/mobile_net_1/inverted_bottleneck_block_27/batch_normalization_2/batchnorm/sub", "shape": [96], "dtype": "float32"}, {"name": "StatefulPartitionedCall/mobile_net_1/inverted_bottleneck_block_30/conv2d/Conv2D/merged_input", "shape": [1, 1, 96, 576], "dtype": "float32"}, {"name": "StatefulPartitionedCall/mobile_net_1/inverted_bottleneck_block_30/batch_normalization/batchnorm/sub", "shape": [576], "dtype": "float32"}, {"name": "StatefulPartitionedCall/mobile_net_1/inverted_bottleneck_block_30/depthwise_conv2d/depthwise/SpaceToBatchND/block_shape", "shape": [2], "dtype": "int32"}, {"name": "StatefulPartitionedCall/mobile_net_1/inverted_bottleneck_block_30/depthwise_conv2d/depthwise/SpaceToBatchND/paddings", "shape": [2, 2], "dtype": "int32"}, {"name": "StatefulPartitionedCall/mobile_net_1/inverted_bottleneck_block_30/depthwise_conv2d/depthwise/ReadVariableOp", "shape": [3, 3, 576, 1], "dtype": "float32"}, {"name": "StatefulPartitionedCall/mobile_net_1/inverted_bottleneck_block_30/depthwise_conv2d/depthwise/BatchToSpaceND/block_shape", "shape": [2], "dtype": "int32"}, {"name": "StatefulPartitionedCall/mobile_net_1/inverted_bottleneck_block_30/depthwise_conv2d/depthwise/BatchToSpaceND/crops", "shape": [2, 2], "dtype": "int32"}, {"name": "StatefulPartitionedCall/mobile_net_1/inverted_bottleneck_block_30/batch_normalization_1/batchnorm/mul", "shape": [576], "dtype": "float32"}, {"name": "StatefulPartitionedCall/mobile_net_1/inverted_bottleneck_block_30/batch_normalization_1/batchnorm/sub", "shape": [576], "dtype": "float32"}, {"name": "StatefulPartitionedCall/mobile_net_1/inverted_bottleneck_block_30/conv2d_1/Conv2D/merged_input", "shape": [1, 1, 576, 160], "dtype": "float32"}, {"name": "StatefulPartitionedCall/mobile_net_1/inverted_bottleneck_block_30/batch_normalization_2/batchnorm/sub", "shape": [160], "dtype": "float32"}, {"name": "StatefulPartitionedCall/mobile_net_1/inverted_bottleneck_block_33/conv2d/Conv2D/merged_input", "shape": [1, 1, 160, 960], "dtype": "float32"}, {"name": "StatefulPartitionedCall/mobile_net_1/inverted_bottleneck_block_33/batch_normalization/batchnorm/sub", "shape": [960], "dtype": "float32"}, {"name": "StatefulPartitionedCall/mobile_net_1/inverted_bottleneck_block_33/depthwise_conv2d/depthwise/SpaceToBatchND/block_shape", "shape": [2], "dtype": "int32"}, {"name": "StatefulPartitionedCall/mobile_net_1/inverted_bottleneck_block_33/depthwise_conv2d/depthwise/SpaceToBatchND/paddings", "shape": [2, 2], "dtype": "int32"}, {"name": "StatefulPartitionedCall/mobile_net_1/inverted_bottleneck_block_33/depthwise_conv2d/depthwise/ReadVariableOp", "shape": [3, 3, 960, 1], "dtype": "float32"}, {"name": "StatefulPartitionedCall/mobile_net_1/inverted_bottleneck_block_33/depthwise_conv2d/depthwise/BatchToSpaceND/block_shape", "shape": [2], "dtype": "int32"}, {"name": "StatefulPartitionedCall/mobile_net_1/inverted_bottleneck_block_33/depthwise_conv2d/depthwise/BatchToSpaceND/crops", "shape": [2, 2], "dtype": "int32"}, {"name": "StatefulPartitionedCall/mobile_net_1/inverted_bottleneck_block_33/batch_normalization_1/batchnorm/mul", "shape": [960], "dtype": "float32"}, {"name": "StatefulPartitionedCall/mobile_net_1/inverted_bottleneck_block_33/batch_normalization_1/batchnorm/sub", "shape": [960], "dtype": "float32"}, {"name": "StatefulPartitionedCall/mobile_net_1/inverted_bottleneck_block_33/conv2d_1/Conv2D/merged_input", "shape": [1, 1, 960, 320], "dtype": "float32"}, {"name": "StatefulPartitionedCall/mobile_net_1/inverted_bottleneck_block_33/batch_normalization_2/batchnorm/sub", "shape": [320], "dtype": "float32"}, {"name": "StatefulPartitionedCall/aspp_1/spatial_pyramid_pooling/sequential_1/global_average_pooling2d/Mean/reduction_indices", "shape": [2], "dtype": "int32"}, {"name": "StatefulPartitionedCall/aspp_1/spatial_pyramid_pooling/sequential_1/reshape/Reshape/shape", "shape": [4], "dtype": "int32"}, {"name": "StatefulPartitionedCall/aspp_1/spatial_pyramid_pooling/sequential_1/sequential_2/conv2d_1/Conv2D/merged_input", "shape": [1, 1, 320, 256], "dtype": "float32"}, {"name": "StatefulPartitionedCall/aspp_1/spatial_pyramid_pooling/sequential_1/sequential_2/batch_normalization_1/batchnorm/sub", "shape": [256], "dtype": "float32"}, {"name": "StatefulPartitionedCall/aspp_1/spatial_pyramid_pooling/strided_slice", "shape": [2], "dtype": "int32"}, {"name": "StatefulPartitionedCall/aspp_1/spatial_pyramid_pooling/concat/axis", "shape": [], "dtype": "int32"}, {"name": "StatefulPartitionedCall/map/while/cond/_281/map/while/Less/y", "shape": [], "dtype": "int32"}, {"name": "StatefulPartitionedCall/map/while/body/_282/map/while/Cast_2", "shape": [2], "dtype": "float32"}, {"name": "StatefulPartitionedCall/map/while/body/_282/map/while/truediv/Cast", "shape": [2], "dtype": "float32"}, {"name": "StatefulPartitionedCall/map/while/body/_282/map/while/strided_slice/stack", "shape": [1], "dtype": "int32"}, {"name": "StatefulPartitionedCall/map/while/body/_282/map/while/strided_slice/stack_1", "shape": [1], "dtype": "int32"}, {"name": "StatefulPartitionedCall/map/while/body/_282/map/while/strided_slice/stack_2", "shape": [1], "dtype": "int32"}, {"name": "StatefulPartitionedCall/map/while/body/_282/map/while/Const", "shape": [2], "dtype": "float32"}, {"name": "StatefulPartitionedCall/map/while/body/_282/map/while/TensorArrayV2Read/TensorListGetItem/element_shape", "shape": [3], "dtype": "int32"}, {"name": "StatefulPartitionedCall/map/while/body/_282/map/while/normalize_image/ExpandDims_1", "shape": [1, 1, 3], "dtype": "float32"}, {"name": "ConstantFolding/StatefulPartitionedCall/map/while/body/_282/map/while/normalize_image/truediv_recip", "shape": [1, 1, 3], "dtype": "float32"}, {"name": "StatefulPartitionedCall/map/while/body/_282/map/while/resize/ExpandDims/dim", "shape": [], "dtype": "int32"}, {"name": "StatefulPartitionedCall/map/while/body/_282/map/while/Cast/x", "shape": [2], "dtype": "int32"}, {"name": "StatefulPartitionedCall/map/while/body/_282/map/while/add/y", "shape": [], "dtype": "int32"}, {"name": "StatefulPartitionedCall/map/while/body/_282/map/while/add_1/y", "shape": [], "dtype": "int32"}]}]}